{"format": "graph-model", "generatedBy": "2.19.0", "convertedBy": "TensorFlow.js Converter v4.22.0", "signature": {"outputs": {"Identity:0": {"name": "Identity:0"}, "model_442/tf.math.top_k/TopKV2:0": {"name": "model_442/tf.math.top_k/TopKV2:0"}}}, "modelTopology": {"node": [{"name": "model_442/tf.linalg.matmul_126/MatMul/b", "op": "Const", "attr": {"value": {"tensor": {"dtype": "DT_FLOAT", "tensorShape": {"dim": [{"size": "256"}, {"size": "256"}]}}}, "dtype": {"type": "DT_FLOAT"}}}, {"name": "model_442/tf.__operators__.add_226/AddV2/y", "op": "Const", "attr": {"value": {"tensor": {"dtype": "DT_FLOAT", "tensorShape": {"dim": [{"size": "256"}]}}}, "dtype": {"type": "DT_FLOAT"}}}, {"name": "model_442/tf.linalg.matmul_128/MatMul/b", "op": "Const", "attr": {"value": {"tensor": {"dtype": "DT_FLOAT", "tensorShape": {"dim": [{"size": "256"}, {"size": "256"}]}}}, "dtype": {"type": "DT_FLOAT"}}}, {"name": "model_442/tf.__operators__.add_228/AddV2/y", "op": "Const", "attr": {"value": {"tensor": {"dtype": "DT_FLOAT", "tensorShape": {"dim": [{"size": "256"}]}}}, "dtype": {"type": "DT_FLOAT"}}}, {"name": "model_442/tf.linalg.matmul_129/MatMul/b", "op": "Const", "attr": {"value": {"tensor": {"dtype": "DT_FLOAT", "tensorShape": {"dim": [{"size": "256"}, {"size": "4"}]}}}, "dtype": {"type": "DT_FLOAT"}}}, {"name": "model_442/tf.__operators__.add_229/AddV2/y", "op": "Const", "attr": {"value": {"tensor": {"dtype": "DT_FLOAT", "tensorShape": {"dim": [{"size": "4"}]}}}, "dtype": {"type": "DT_FLOAT"}}}, {"name": "model_442/tf.reshape_918/Reshape/shape", "op": "Const", "attr": {"value": {"tensor": {"dtype": "DT_INT32", "tensorShape": {"dim": [{"size": "3"}]}}}, "dtype": {"type": "DT_INT32"}}}, {"name": "model_442/tf.math.maximum_10/Maximum/y", "op": "Const", "attr": {"value": {"tensor": {"dtype": "DT_FLOAT", "tensorShape": {}}}, "dtype": {"type": "DT_FLOAT"}}}, {"name": "model_442/942503", "op": "Const", "attr": {"value": {"tensor": {"dtype": "DT_FLOAT", "tensorShape": {}}}, "dtype": {"type": "DT_FLOAT"}}}, {"name": "model_442/tf.clip_by_value_65/clip_by_value/Minimum/y", "op": "Const", "attr": {"value": {"tensor": {"dtype": "DT_FLOAT", "tensorShape": {}}}, "dtype": {"type": "DT_FLOAT"}}}, {"name": "model_442/tf.clip_by_value_65/clip_by_value/y", "op": "Const", "attr": {"value": {"tensor": {"dtype": "DT_FLOAT", "tensorShape": {}}}, "dtype": {"type": "DT_FLOAT"}}}, {"name": "model_442/tf.math.maximum_11/Maximum/y", "op": "Const", "attr": {"value": {"tensor": {"dtype": "DT_FLOAT", "tensorShape": {}}}, "dtype": {"type": "DT_FLOAT"}}}, {"name": "model_442/tf.reshape_919/Reshape/shape", "op": "Const", "attr": {"value": {"tensor": {"dtype": "DT_INT32", "tensorShape": {"dim": [{"size": "4"}]}}}, "dtype": {"type": "DT_INT32"}}}, {"name": "model_442/layer_normalization_20/batchnorm/ReadVariableOp", "op": "Const", "attr": {"value": {"tensor": {"dtype": "DT_FLOAT", "tensorShape": {"dim": [{"size": "256"}]}}}, "dtype": {"type": "DT_FLOAT"}}}, {"name": "model_442/layer_normalization_19/batchnorm/ReadVariableOp", "op": "Const", "attr": {"value": {"tensor": {"dtype": "DT_FLOAT", "tensorShape": {"dim": [{"size": "256"}]}}}, "dtype": {"type": "DT_FLOAT"}}}, {"name": "model_442/tf.expand_dims_320/ExpandDims/dim", "op": "Const", "attr": {"value": {"tensor": {"dtype": "DT_INT32", "tensorShape": {}}}, "dtype": {"type": "DT_INT32"}}}, {"name": "model_442/tf.math.multiply_1150/Mul/y", "op": "Const", "attr": {"value": {"tensor": {"dtype": "DT_INT64", "tensorShape": {"dim": [{"size": "1"}, {"size": "32"}, {"size": "1"}]}}}, "dtype": {"type": "DT_INT64"}}}, {"name": "model_442/tf.tensor_scatter_nd_update_63/TensorScatterUpdate", "op": "Const", "attr": {"value": {"tensor": {"dtype": "DT_INT32", "tensorShape": {"dim": [{"size": "3"}]}}}, "dtype": {"type": "DT_INT32"}}}, {"name": "model_442/tf.expand_dims_332/ExpandDims/dim", "op": "Const", "attr": {"value": {"tensor": {"dtype": "DT_INT32", "tensorShape": {}}}, "dtype": {"type": "DT_INT32"}}}, {"name": "ConstantFolding/model_442/tf.concat_164/concat_partial_split_1", "op": "Const", "attr": {"value": {"tensor": {"dtype": "DT_INT64", "tensorShape": {"dim": [{"size": "1200"}, {"size": "32"}, {"size": "8"}, {"size": "2"}]}}}, "dtype": {"type": "DT_INT64"}}}, {"name": "model_442/tf.concat_164/concat/axis", "op": "Const", "attr": {"value": {"tensor": {"dtype": "DT_INT32", "tensorShape": {}}}, "dtype": {"type": "DT_INT32"}}}, {"name": "model_442/tf.compat.v1.transpose_1307/transpose/perm", "op": "Const", "attr": {"value": {"tensor": {"dtype": "DT_INT32", "tensorShape": {"dim": [{"size": "3"}]}}}, "dtype": {"type": "DT_INT32"}}}, {"name": "model_442/tf.expand_dims_315/ExpandDims/dim", "op": "Const", "attr": {"value": {"tensor": {"dtype": "DT_INT32", "tensorShape": {}}}, "dtype": {"type": "DT_INT32"}}}, {"name": "model_442/tf.math.greater_93/Greater/y", "op": "Const", "attr": {"value": {"tensor": {"dtype": "DT_INT64", "tensorShape": {}}}, "dtype": {"type": "DT_INT64"}}}, {"name": "model_442/tf.where_139/SelectV2/t", "op": "Const", "attr": {"value": {"tensor": {"dtype": "DT_INT64", "tensorShape": {}}}, "dtype": {"type": "DT_INT64"}}}, {"name": "model_442/tf.math.less_95/Less/y", "op": "Const", "attr": {"value": {"tensor": {"dtype": "DT_INT64", "tensorShape": {}}}, "dtype": {"type": "DT_INT64"}}}, {"name": "model_442/tf.where_138/SelectV2/t", "op": "Const", "attr": {"value": {"tensor": {"dtype": "DT_INT64", "tensorShape": {}}}, "dtype": {"type": "DT_INT64"}}}, {"name": "model_442/tf.expand_dims_322/ExpandDims/dim", "op": "Const", "attr": {"value": {"tensor": {"dtype": "DT_INT32", "tensorShape": {}}}, "dtype": {"type": "DT_INT32"}}}, {"name": "model_442/tf.math.multiply_1152/Mul/y", "op": "Const", "attr": {"value": {"tensor": {"dtype": "DT_INT64", "tensorShape": {"dim": [{"size": "1"}, {"size": "32"}, {"size": "1"}]}}}, "dtype": {"type": "DT_INT64"}}}, {"name": "model_442/tf.tensor_scatter_nd_update_62/TensorScatterUpdate", "op": "Const", "attr": {"value": {"tensor": {"dtype": "DT_INT32", "tensorShape": {"dim": [{"size": "3"}]}}}, "dtype": {"type": "DT_INT32"}}}, {"name": "model_442/tf.expand_dims_329/ExpandDims/dim", "op": "Const", "attr": {"value": {"tensor": {"dtype": "DT_INT32", "tensorShape": {}}}, "dtype": {"type": "DT_INT32"}}}, {"name": "ConstantFolding/model_442/tf.concat_163/concat_partial_split_1", "op": "Const", "attr": {"value": {"tensor": {"dtype": "DT_INT64", "tensorShape": {"dim": [{"size": "1200"}, {"size": "32"}, {"size": "8"}, {"size": "2"}]}}}, "dtype": {"type": "DT_INT64"}}}, {"name": "model_442/tf.concat_163/concat/axis", "op": "Const", "attr": {"value": {"tensor": {"dtype": "DT_INT32", "tensorShape": {}}}, "dtype": {"type": "DT_INT32"}}}, {"name": "model_442/tf.compat.v1.transpose_1304/transpose/perm", "op": "Const", "attr": {"value": {"tensor": {"dtype": "DT_INT32", "tensorShape": {"dim": [{"size": "3"}]}}}, "dtype": {"type": "DT_INT32"}}}, {"name": "model_442/tf.expand_dims_316/ExpandDims/dim", "op": "Const", "attr": {"value": {"tensor": {"dtype": "DT_INT32", "tensorShape": {}}}, "dtype": {"type": "DT_INT32"}}}, {"name": "model_442/tf.math.greater_95/Greater/y", "op": "Const", "attr": {"value": {"tensor": {"dtype": "DT_INT64", "tensorShape": {}}}, "dtype": {"type": "DT_INT64"}}}, {"name": "model_442/tf.where_143/SelectV2/t", "op": "Const", "attr": {"value": {"tensor": {"dtype": "DT_INT64", "tensorShape": {}}}, "dtype": {"type": "DT_INT64"}}}, {"name": "model_442/tf.math.less_97/Less/y", "op": "Const", "attr": {"value": {"tensor": {"dtype": "DT_INT64", "tensorShape": {}}}, "dtype": {"type": "DT_INT64"}}}, {"name": "model_442/tf.where_142/SelectV2/t", "op": "Const", "attr": {"value": {"tensor": {"dtype": "DT_INT64", "tensorShape": {}}}, "dtype": {"type": "DT_INT64"}}}, {"name": "model_442/tf.math.multiply_1148/Mul/y", "op": "Const", "attr": {"value": {"tensor": {"dtype": "DT_INT64", "tensorShape": {}}}, "dtype": {"type": "DT_INT64"}}}, {"name": "model_442/tf.expand_dims_319/ExpandDims/dim", "op": "Const", "attr": {"value": {"tensor": {"dtype": "DT_INT32", "tensorShape": {}}}, "dtype": {"type": "DT_INT32"}}}, {"name": "model_442/tf.math.multiply_1149/Mul/y", "op": "Const", "attr": {"value": {"tensor": {"dtype": "DT_INT64", "tensorShape": {"dim": [{"size": "1"}, {"size": "32"}, {"size": "1"}]}}}, "dtype": {"type": "DT_INT64"}}}, {"name": "model_442/tf.tensor_scatter_nd_update_61/TensorScatterUpdate", "op": "Const", "attr": {"value": {"tensor": {"dtype": "DT_INT32", "tensorShape": {"dim": [{"size": "3"}]}}}, "dtype": {"type": "DT_INT32"}}}, {"name": "model_442/tf.expand_dims_326/ExpandDims/dim", "op": "Const", "attr": {"value": {"tensor": {"dtype": "DT_INT32", "tensorShape": {}}}, "dtype": {"type": "DT_INT32"}}}, {"name": "ConstantFolding/model_442/tf.concat_162/concat_partial_split_1", "op": "Const", "attr": {"value": {"tensor": {"dtype": "DT_INT64", "tensorShape": {"dim": [{"size": "1200"}, {"size": "32"}, {"size": "8"}, {"size": "2"}]}}}, "dtype": {"type": "DT_INT64"}}}, {"name": "model_442/tf.concat_162/concat/axis", "op": "Const", "attr": {"value": {"tensor": {"dtype": "DT_INT32", "tensorShape": {}}}, "dtype": {"type": "DT_INT32"}}}, {"name": "model_442/tf.compat.v1.transpose_1301/transpose/perm", "op": "Const", "attr": {"value": {"tensor": {"dtype": "DT_INT32", "tensorShape": {"dim": [{"size": "3"}]}}}, "dtype": {"type": "DT_INT32"}}}, {"name": "model_442/tf.expand_dims_318/ExpandDims/dim", "op": "Const", "attr": {"value": {"tensor": {"dtype": "DT_INT32", "tensorShape": {}}}, "dtype": {"type": "DT_INT32"}}}, {"name": "model_442/tf.strided_slice_33/ones_like/tensor", "op": "Const", "attr": {"value": {"tensor": {"dtype": "DT_INT64", "tensorShape": {"dim": [{"size": "4"}]}}}, "dtype": {"type": "DT_INT64"}}}, {"name": "model_442/tf.strided_slice_33/StridedSlice/end", "op": "Const", "attr": {"value": {"tensor": {"dtype": "DT_INT64", "tensorShape": {"dim": [{"size": "4"}]}}}, "dtype": {"type": "DT_INT64"}}}, {"name": "model_442/tf.strided_slice_33/ones_like", "op": "Const", "attr": {"value": {"tensor": {"dtype": "DT_INT64", "tensorShape": {"dim": [{"size": "4"}]}}}, "dtype": {"type": "DT_INT64"}}}, {"name": "model_442/tf.reshape_117/Reshape/shape", "op": "Const", "attr": {"value": {"tensor": {"dtype": "DT_INT32", "tensorShape": {"dim": [{"size": "3"}]}}}, "dtype": {"type": "DT_INT32"}}}, {"name": "model_442/tf.compat.v1.transpose_314/transpose/perm", "op": "Const", "attr": {"value": {"tensor": {"dtype": "DT_INT32", "tensorShape": {"dim": [{"size": "3"}]}}}, "dtype": {"type": "DT_INT32"}}}, {"name": "model_442/tf.reshape_175/Reshape/shape", "op": "Const", "attr": {"value": {"tensor": {"dtype": "DT_INT32", "tensorShape": {"dim": [{"size": "4"}]}}}, "dtype": {"type": "DT_INT32"}}}, {"name": "model_442/tf.compat.v1.transpose_1294/transpose/perm", "op": "Const", "attr": {"value": {"tensor": {"dtype": "DT_INT32", "tensorShape": {"dim": [{"size": "4"}]}}}, "dtype": {"type": "DT_INT32"}}}, {"name": "model_442/tf.compat.v1.pad_32/Pad/paddings", "op": "Const", "attr": {"value": {"tensor": {"dtype": "DT_INT32", "tensorShape": {"dim": [{"size": "4"}, {"size": "2"}]}}}, "dtype": {"type": "DT_INT32"}}}, {"name": "model_442/tf.reshape_841/Reshape/shape", "op": "Const", "attr": {"value": {"tensor": {"dtype": "DT_INT32", "tensorShape": {"dim": [{"size": "3"}]}}}, "dtype": {"type": "DT_INT32"}}}, {"name": "model_442/tf.compat.v1.transpose_1295/transpose/perm", "op": "Const", "attr": {"value": {"tensor": {"dtype": "DT_INT32", "tensorShape": {"dim": [{"size": "3"}]}}}, "dtype": {"type": "DT_INT32"}}}, {"name": "model_442/tf.math.greater_92/Greater/y", "op": "Const", "attr": {"value": {"tensor": {"dtype": "DT_INT64", "tensorShape": {}}}, "dtype": {"type": "DT_INT64"}}}, {"name": "model_442/tf.where_137/SelectV2/t", "op": "Const", "attr": {"value": {"tensor": {"dtype": "DT_INT64", "tensorShape": {}}}, "dtype": {"type": "DT_INT64"}}}, {"name": "model_442/tf.math.less_94/Less/y", "op": "Const", "attr": {"value": {"tensor": {"dtype": "DT_INT64", "tensorShape": {}}}, "dtype": {"type": "DT_INT64"}}}, {"name": "model_442/tf.where_136/SelectV2/t", "op": "Const", "attr": {"value": {"tensor": {"dtype": "DT_INT64", "tensorShape": {}}}, "dtype": {"type": "DT_INT64"}}}, {"name": "model_442/tf.math.add_441/Add/y", "op": "Const", "attr": {"value": {"tensor": {"dtype": "DT_FLOAT", "tensorShape": {}}}, "dtype": {"type": "DT_FLOAT"}}}, {"name": "model_442/tf.math.add_443/Add/y", "op": "Const", "attr": {"value": {"tensor": {"dtype": "DT_FLOAT", "tensorShape": {}}}, "dtype": {"type": "DT_FLOAT"}}}, {"name": "model_442/tf.math.greater_94/Greater/y", "op": "Const", "attr": {"value": {"tensor": {"dtype": "DT_INT64", "tensorShape": {}}}, "dtype": {"type": "DT_INT64"}}}, {"name": "model_442/tf.where_141/SelectV2/t", "op": "Const", "attr": {"value": {"tensor": {"dtype": "DT_INT64", "tensorShape": {}}}, "dtype": {"type": "DT_INT64"}}}, {"name": "model_442/tf.math.less_96/Less/y", "op": "Const", "attr": {"value": {"tensor": {"dtype": "DT_INT64", "tensorShape": {}}}, "dtype": {"type": "DT_INT64"}}}, {"name": "model_442/tf.where_140/SelectV2/t", "op": "Const", "attr": {"value": {"tensor": {"dtype": "DT_INT64", "tensorShape": {}}}, "dtype": {"type": "DT_INT64"}}}, {"name": "model_442/tf.math.add_442/Add/y", "op": "Const", "attr": {"value": {"tensor": {"dtype": "DT_FLOAT", "tensorShape": {}}}, "dtype": {"type": "DT_FLOAT"}}}, {"name": "model_442/tf.math.add_444/Add/y", "op": "Const", "attr": {"value": {"tensor": {"dtype": "DT_FLOAT", "tensorShape": {}}}, "dtype": {"type": "DT_FLOAT"}}}, {"name": "model_442/tf.math.multiply_1147/Mul/y", "op": "Const", "attr": {"value": {"tensor": {"dtype": "DT_INT64", "tensorShape": {}}}, "dtype": {"type": "DT_INT64"}}}, {"name": "model_442/tf.expand_dims_321/ExpandDims/dim", "op": "Const", "attr": {"value": {"tensor": {"dtype": "DT_INT32", "tensorShape": {}}}, "dtype": {"type": "DT_INT32"}}}, {"name": "model_442/tf.math.multiply_1151/Mul/y", "op": "Const", "attr": {"value": {"tensor": {"dtype": "DT_INT64", "tensorShape": {"dim": [{"size": "1"}, {"size": "32"}, {"size": "1"}]}}}, "dtype": {"type": "DT_INT64"}}}, {"name": "model_442/tf.tensor_scatter_nd_update_60/TensorScatterUpdate", "op": "Const", "attr": {"value": {"tensor": {"dtype": "DT_INT32", "tensorShape": {"dim": [{"size": "3"}]}}}, "dtype": {"type": "DT_INT32"}}}, {"name": "model_442/tf.expand_dims_323/ExpandDims/dim", "op": "Const", "attr": {"value": {"tensor": {"dtype": "DT_INT32", "tensorShape": {}}}, "dtype": {"type": "DT_INT32"}}}, {"name": "ConstantFolding/model_442/tf.concat_161/concat_partial_split_1", "op": "Const", "attr": {"value": {"tensor": {"dtype": "DT_INT64", "tensorShape": {"dim": [{"size": "1200"}, {"size": "32"}, {"size": "8"}, {"size": "2"}]}}}, "dtype": {"type": "DT_INT64"}}}, {"name": "model_442/tf.concat_161/concat/axis", "op": "Const", "attr": {"value": {"tensor": {"dtype": "DT_INT32", "tensorShape": {}}}, "dtype": {"type": "DT_INT32"}}}, {"name": "model_442/tf.compat.v1.transpose_1298/transpose/perm", "op": "Const", "attr": {"value": {"tensor": {"dtype": "DT_INT32", "tensorShape": {"dim": [{"size": "3"}]}}}, "dtype": {"type": "DT_INT32"}}}, {"name": "model_442/tf.math.add_439/Add/y", "op": "Const", "attr": {"value": {"tensor": {"dtype": "DT_FLOAT", "tensorShape": {}}}, "dtype": {"type": "DT_FLOAT"}}}, {"name": "model_442/tf.math.multiply_1139/Mul/y", "op": "Const", "attr": {"value": {"tensor": {"dtype": "DT_FLOAT", "tensorShape": {}}}, "dtype": {"type": "DT_FLOAT"}}}, {"name": "model_442/tf.math.subtract_222/Sub/y", "op": "Const", "attr": {"value": {"tensor": {"dtype": "DT_FLOAT", "tensorShape": {}}}, "dtype": {"type": "DT_FLOAT"}}}, {"name": "model_442/tf.math.multiply_1140/Mul/y", "op": "Const", "attr": {"value": {"tensor": {"dtype": "DT_FLOAT", "tensorShape": {}}}, "dtype": {"type": "DT_FLOAT"}}}, {"name": "model_442/tf.reshape_839/Reshape/shape", "op": "Const", "attr": {"value": {"tensor": {"dtype": "DT_INT32", "tensorShape": {"dim": [{"size": "2"}]}}}, "dtype": {"type": "DT_INT32"}}}, {"name": "model_442/tf.split_31/split/split_dim", "op": "Const", "attr": {"value": {"tensor": {"dtype": "DT_INT32", "tensorShape": {}}}, "dtype": {"type": "DT_INT32"}}}, {"name": "model_442/tf.compat.v1.gather_17/GatherV2/indices", "op": "Const", "attr": {"value": {"tensor": {"dtype": "DT_INT32", "tensorShape": {}}}, "dtype": {"type": "DT_INT32"}}}, {"name": "model_442/tf.compat.v1.gather_17/GatherV2/axis", "op": "Const", "attr": {"value": {"tensor": {"dtype": "DT_INT32", "tensorShape": {}}}, "dtype": {"type": "DT_INT32"}}}, {"name": "model_442/tf.compat.v1.transpose_1279/transpose/perm", "op": "Const", "attr": {"value": {"tensor": {"dtype": "DT_INT32", "tensorShape": {"dim": [{"size": "5"}]}}}, "dtype": {"type": "DT_INT32"}}}, {"name": "model_442/tf.reshape_832/Reshape/shape", "op": "Const", "attr": {"value": {"tensor": {"dtype": "DT_INT32", "tensorShape": {"dim": [{"size": "4"}]}}}, "dtype": {"type": "DT_INT32"}}}, {"name": "model_442/tf.math.add_440/Add/y", "op": "Const", "attr": {"value": {"tensor": {"dtype": "DT_FLOAT", "tensorShape": {}}}, "dtype": {"type": "DT_FLOAT"}}}, {"name": "model_442/tf.math.multiply_1141/Mul/y", "op": "Const", "attr": {"value": {"tensor": {"dtype": "DT_FLOAT", "tensorShape": {}}}, "dtype": {"type": "DT_FLOAT"}}}, {"name": "model_442/tf.math.subtract_223/Sub/y", "op": "Const", "attr": {"value": {"tensor": {"dtype": "DT_FLOAT", "tensorShape": {}}}, "dtype": {"type": "DT_FLOAT"}}}, {"name": "model_442/tf.math.multiply_1142/Mul/y", "op": "Const", "attr": {"value": {"tensor": {"dtype": "DT_FLOAT", "tensorShape": {}}}, "dtype": {"type": "DT_FLOAT"}}}, {"name": "model_442/tf.reshape_840/Reshape/shape", "op": "Const", "attr": {"value": {"tensor": {"dtype": "DT_INT32", "tensorShape": {"dim": [{"size": "2"}]}}}, "dtype": {"type": "DT_INT32"}}}, {"name": "model_442/tf.expand_dims_317/ExpandDims/dim", "op": "Const", "attr": {"value": {"tensor": {"dtype": "DT_INT32", "tensorShape": {}}}, "dtype": {"type": "DT_INT32"}}}, {"name": "model_442/tf.reshape_854/Reshape/shape", "op": "Const", "attr": {"value": {"tensor": {"dtype": "DT_INT32", "tensorShape": {"dim": [{"size": "4"}]}}}, "dtype": {"type": "DT_INT32"}}}, {"name": "model_442/tf.compat.v1.transpose_1308/transpose/perm", "op": "Const", "attr": {"value": {"tensor": {"dtype": "DT_INT32", "tensorShape": {"dim": [{"size": "4"}]}}}, "dtype": {"type": "DT_INT32"}}}, {"name": "model_442/tf.expand_dims_375/ExpandDims/dim", "op": "Const", "attr": {"value": {"tensor": {"dtype": "DT_INT32", "tensorShape": {}}}, "dtype": {"type": "DT_INT32"}}}, {"name": "model_442/tf.expand_dims_340/ExpandDims/dim", "op": "Const", "attr": {"value": {"tensor": {"dtype": "DT_INT32", "tensorShape": {}}}, "dtype": {"type": "DT_INT32"}}}, {"name": "model_442/tf.math.multiply_1178/Mul/y", "op": "Const", "attr": {"value": {"tensor": {"dtype": "DT_INT64", "tensorShape": {"dim": [{"size": "1"}, {"size": "32"}, {"size": "1"}]}}}, "dtype": {"type": "DT_INT64"}}}, {"name": "model_442/tf.tensor_scatter_nd_update_67/TensorScatterUpdate", "op": "Const", "attr": {"value": {"tensor": {"dtype": "DT_INT32", "tensorShape": {"dim": [{"size": "3"}]}}}, "dtype": {"type": "DT_INT32"}}}, {"name": "model_442/tf.expand_dims_352/ExpandDims/dim", "op": "Const", "attr": {"value": {"tensor": {"dtype": "DT_INT32", "tensorShape": {}}}, "dtype": {"type": "DT_INT32"}}}, {"name": "ConstantFolding/model_442/tf.concat_172/concat_partial_split_1", "op": "Const", "attr": {"value": {"tensor": {"dtype": "DT_INT64", "tensorShape": {"dim": [{"size": "1200"}, {"size": "32"}, {"size": "8"}, {"size": "2"}]}}}, "dtype": {"type": "DT_INT64"}}}, {"name": "model_442/tf.concat_172/concat/axis", "op": "Const", "attr": {"value": {"tensor": {"dtype": "DT_INT32", "tensorShape": {}}}, "dtype": {"type": "DT_INT32"}}}, {"name": "model_442/tf.compat.v1.transpose_1322/transpose/perm", "op": "Const", "attr": {"value": {"tensor": {"dtype": "DT_INT32", "tensorShape": {"dim": [{"size": "3"}]}}}, "dtype": {"type": "DT_INT32"}}}, {"name": "model_442/tf.expand_dims_335/ExpandDims/dim", "op": "Const", "attr": {"value": {"tensor": {"dtype": "DT_INT32", "tensorShape": {}}}, "dtype": {"type": "DT_INT32"}}}, {"name": "model_442/tf.math.greater_99/Greater/y", "op": "Const", "attr": {"value": {"tensor": {"dtype": "DT_INT64", "tensorShape": {}}}, "dtype": {"type": "DT_INT64"}}}, {"name": "model_442/tf.where_148/SelectV2/t", "op": "Const", "attr": {"value": {"tensor": {"dtype": "DT_INT64", "tensorShape": {}}}, "dtype": {"type": "DT_INT64"}}}, {"name": "model_442/tf.math.less_101/Less/y", "op": "Const", "attr": {"value": {"tensor": {"dtype": "DT_INT64", "tensorShape": {}}}, "dtype": {"type": "DT_INT64"}}}, {"name": "model_442/tf.where_147/SelectV2/t", "op": "Const", "attr": {"value": {"tensor": {"dtype": "DT_INT64", "tensorShape": {}}}, "dtype": {"type": "DT_INT64"}}}, {"name": "model_442/tf.expand_dims_342/ExpandDims/dim", "op": "Const", "attr": {"value": {"tensor": {"dtype": "DT_INT32", "tensorShape": {}}}, "dtype": {"type": "DT_INT32"}}}, {"name": "model_442/tf.math.multiply_1180/Mul/y", "op": "Const", "attr": {"value": {"tensor": {"dtype": "DT_INT64", "tensorShape": {"dim": [{"size": "1"}, {"size": "32"}, {"size": "1"}]}}}, "dtype": {"type": "DT_INT64"}}}, {"name": "model_442/tf.tensor_scatter_nd_update_66/TensorScatterUpdate", "op": "Const", "attr": {"value": {"tensor": {"dtype": "DT_INT32", "tensorShape": {"dim": [{"size": "3"}]}}}, "dtype": {"type": "DT_INT32"}}}, {"name": "model_442/tf.expand_dims_349/ExpandDims/dim", "op": "Const", "attr": {"value": {"tensor": {"dtype": "DT_INT32", "tensorShape": {}}}, "dtype": {"type": "DT_INT32"}}}, {"name": "ConstantFolding/model_442/tf.concat_171/concat_partial_split_1", "op": "Const", "attr": {"value": {"tensor": {"dtype": "DT_INT64", "tensorShape": {"dim": [{"size": "1200"}, {"size": "32"}, {"size": "8"}, {"size": "2"}]}}}, "dtype": {"type": "DT_INT64"}}}, {"name": "model_442/tf.concat_171/concat/axis", "op": "Const", "attr": {"value": {"tensor": {"dtype": "DT_INT32", "tensorShape": {}}}, "dtype": {"type": "DT_INT32"}}}, {"name": "model_442/tf.compat.v1.transpose_1319/transpose/perm", "op": "Const", "attr": {"value": {"tensor": {"dtype": "DT_INT32", "tensorShape": {"dim": [{"size": "3"}]}}}, "dtype": {"type": "DT_INT32"}}}, {"name": "model_442/tf.expand_dims_336/ExpandDims/dim", "op": "Const", "attr": {"value": {"tensor": {"dtype": "DT_INT32", "tensorShape": {}}}, "dtype": {"type": "DT_INT32"}}}, {"name": "model_442/tf.math.greater_101/Greater/y", "op": "Const", "attr": {"value": {"tensor": {"dtype": "DT_INT64", "tensorShape": {}}}, "dtype": {"type": "DT_INT64"}}}, {"name": "model_442/tf.where_152/SelectV2/t", "op": "Const", "attr": {"value": {"tensor": {"dtype": "DT_INT64", "tensorShape": {}}}, "dtype": {"type": "DT_INT64"}}}, {"name": "model_442/tf.math.less_103/Less/y", "op": "Const", "attr": {"value": {"tensor": {"dtype": "DT_INT64", "tensorShape": {}}}, "dtype": {"type": "DT_INT64"}}}, {"name": "model_442/tf.where_151/SelectV2/t", "op": "Const", "attr": {"value": {"tensor": {"dtype": "DT_INT64", "tensorShape": {}}}, "dtype": {"type": "DT_INT64"}}}, {"name": "model_442/tf.math.multiply_1176/Mul/y", "op": "Const", "attr": {"value": {"tensor": {"dtype": "DT_INT64", "tensorShape": {}}}, "dtype": {"type": "DT_INT64"}}}, {"name": "model_442/tf.expand_dims_339/ExpandDims/dim", "op": "Const", "attr": {"value": {"tensor": {"dtype": "DT_INT32", "tensorShape": {}}}, "dtype": {"type": "DT_INT32"}}}, {"name": "model_442/tf.math.multiply_1177/Mul/y", "op": "Const", "attr": {"value": {"tensor": {"dtype": "DT_INT64", "tensorShape": {"dim": [{"size": "1"}, {"size": "32"}, {"size": "1"}]}}}, "dtype": {"type": "DT_INT64"}}}, {"name": "model_442/tf.tensor_scatter_nd_update_65/TensorScatterUpdate", "op": "Const", "attr": {"value": {"tensor": {"dtype": "DT_INT32", "tensorShape": {"dim": [{"size": "3"}]}}}, "dtype": {"type": "DT_INT32"}}}, {"name": "model_442/tf.expand_dims_346/ExpandDims/dim", "op": "Const", "attr": {"value": {"tensor": {"dtype": "DT_INT32", "tensorShape": {}}}, "dtype": {"type": "DT_INT32"}}}, {"name": "ConstantFolding/model_442/tf.concat_170/concat_partial_split_1", "op": "Const", "attr": {"value": {"tensor": {"dtype": "DT_INT64", "tensorShape": {"dim": [{"size": "1200"}, {"size": "32"}, {"size": "8"}, {"size": "2"}]}}}, "dtype": {"type": "DT_INT64"}}}, {"name": "model_442/tf.concat_170/concat/axis", "op": "Const", "attr": {"value": {"tensor": {"dtype": "DT_INT32", "tensorShape": {}}}, "dtype": {"type": "DT_INT32"}}}, {"name": "model_442/tf.compat.v1.transpose_1316/transpose/perm", "op": "Const", "attr": {"value": {"tensor": {"dtype": "DT_INT32", "tensorShape": {"dim": [{"size": "3"}]}}}, "dtype": {"type": "DT_INT32"}}}, {"name": "model_442/tf.expand_dims_338/ExpandDims/dim", "op": "Const", "attr": {"value": {"tensor": {"dtype": "DT_INT32", "tensorShape": {}}}, "dtype": {"type": "DT_INT32"}}}, {"name": "model_442/tf.strided_slice_34/ones_like/tensor", "op": "Const", "attr": {"value": {"tensor": {"dtype": "DT_INT64", "tensorShape": {"dim": [{"size": "4"}]}}}, "dtype": {"type": "DT_INT64"}}}, {"name": "model_442/tf.strided_slice_34/StridedSlice/end", "op": "Const", "attr": {"value": {"tensor": {"dtype": "DT_INT64", "tensorShape": {"dim": [{"size": "4"}]}}}, "dtype": {"type": "DT_INT64"}}}, {"name": "model_442/tf.strided_slice_34/ones_like", "op": "Const", "attr": {"value": {"tensor": {"dtype": "DT_INT64", "tensorShape": {"dim": [{"size": "4"}]}}}, "dtype": {"type": "DT_INT64"}}}, {"name": "model_442/tf.reshape_120/Reshape/shape", "op": "Const", "attr": {"value": {"tensor": {"dtype": "DT_INT32", "tensorShape": {"dim": [{"size": "3"}]}}}, "dtype": {"type": "DT_INT32"}}}, {"name": "model_442/tf.compat.v1.transpose_315/transpose/perm", "op": "Const", "attr": {"value": {"tensor": {"dtype": "DT_INT32", "tensorShape": {"dim": [{"size": "3"}]}}}, "dtype": {"type": "DT_INT32"}}}, {"name": "model_442/tf.reshape_178/Reshape/shape", "op": "Const", "attr": {"value": {"tensor": {"dtype": "DT_INT32", "tensorShape": {"dim": [{"size": "4"}]}}}, "dtype": {"type": "DT_INT32"}}}, {"name": "model_442/tf.compat.v1.transpose_1309/transpose/perm", "op": "Const", "attr": {"value": {"tensor": {"dtype": "DT_INT32", "tensorShape": {"dim": [{"size": "4"}]}}}, "dtype": {"type": "DT_INT32"}}}, {"name": "model_442/tf.compat.v1.pad_33/Pad/paddings", "op": "Const", "attr": {"value": {"tensor": {"dtype": "DT_INT32", "tensorShape": {"dim": [{"size": "4"}, {"size": "2"}]}}}, "dtype": {"type": "DT_INT32"}}}, {"name": "model_442/tf.reshape_857/Reshape/shape", "op": "Const", "attr": {"value": {"tensor": {"dtype": "DT_INT32", "tensorShape": {"dim": [{"size": "3"}]}}}, "dtype": {"type": "DT_INT32"}}}, {"name": "model_442/tf.compat.v1.transpose_1310/transpose/perm", "op": "Const", "attr": {"value": {"tensor": {"dtype": "DT_INT32", "tensorShape": {"dim": [{"size": "3"}]}}}, "dtype": {"type": "DT_INT32"}}}, {"name": "model_442/tf.math.greater_98/Greater/y", "op": "Const", "attr": {"value": {"tensor": {"dtype": "DT_INT64", "tensorShape": {}}}, "dtype": {"type": "DT_INT64"}}}, {"name": "model_442/tf.where_146/SelectV2/t", "op": "Const", "attr": {"value": {"tensor": {"dtype": "DT_INT64", "tensorShape": {}}}, "dtype": {"type": "DT_INT64"}}}, {"name": "model_442/tf.math.less_100/Less/y", "op": "Const", "attr": {"value": {"tensor": {"dtype": "DT_INT64", "tensorShape": {}}}, "dtype": {"type": "DT_INT64"}}}, {"name": "model_442/tf.where_145/SelectV2/t", "op": "Const", "attr": {"value": {"tensor": {"dtype": "DT_INT64", "tensorShape": {}}}, "dtype": {"type": "DT_INT64"}}}, {"name": "model_442/tf.math.add_454/Add/y", "op": "Const", "attr": {"value": {"tensor": {"dtype": "DT_FLOAT", "tensorShape": {}}}, "dtype": {"type": "DT_FLOAT"}}}, {"name": "model_442/tf.math.add_456/Add/y", "op": "Const", "attr": {"value": {"tensor": {"dtype": "DT_FLOAT", "tensorShape": {}}}, "dtype": {"type": "DT_FLOAT"}}}, {"name": "model_442/tf.math.greater_100/Greater/y", "op": "Const", "attr": {"value": {"tensor": {"dtype": "DT_INT64", "tensorShape": {}}}, "dtype": {"type": "DT_INT64"}}}, {"name": "model_442/tf.where_150/SelectV2/t", "op": "Const", "attr": {"value": {"tensor": {"dtype": "DT_INT64", "tensorShape": {}}}, "dtype": {"type": "DT_INT64"}}}, {"name": "model_442/tf.math.less_102/Less/y", "op": "Const", "attr": {"value": {"tensor": {"dtype": "DT_INT64", "tensorShape": {}}}, "dtype": {"type": "DT_INT64"}}}, {"name": "model_442/tf.where_149/SelectV2/t", "op": "Const", "attr": {"value": {"tensor": {"dtype": "DT_INT64", "tensorShape": {}}}, "dtype": {"type": "DT_INT64"}}}, {"name": "model_442/tf.math.add_455/Add/y", "op": "Const", "attr": {"value": {"tensor": {"dtype": "DT_FLOAT", "tensorShape": {}}}, "dtype": {"type": "DT_FLOAT"}}}, {"name": "model_442/tf.math.add_457/Add/y", "op": "Const", "attr": {"value": {"tensor": {"dtype": "DT_FLOAT", "tensorShape": {}}}, "dtype": {"type": "DT_FLOAT"}}}, {"name": "model_442/tf.math.multiply_1175/Mul/y", "op": "Const", "attr": {"value": {"tensor": {"dtype": "DT_INT64", "tensorShape": {}}}, "dtype": {"type": "DT_INT64"}}}, {"name": "model_442/tf.expand_dims_341/ExpandDims/dim", "op": "Const", "attr": {"value": {"tensor": {"dtype": "DT_INT32", "tensorShape": {}}}, "dtype": {"type": "DT_INT32"}}}, {"name": "model_442/tf.math.multiply_1179/Mul/y", "op": "Const", "attr": {"value": {"tensor": {"dtype": "DT_INT64", "tensorShape": {"dim": [{"size": "1"}, {"size": "32"}, {"size": "1"}]}}}, "dtype": {"type": "DT_INT64"}}}, {"name": "model_442/tf.tensor_scatter_nd_update_64/TensorScatterUpdate", "op": "Const", "attr": {"value": {"tensor": {"dtype": "DT_INT32", "tensorShape": {"dim": [{"size": "3"}]}}}, "dtype": {"type": "DT_INT32"}}}, {"name": "model_442/tf.expand_dims_343/ExpandDims/dim", "op": "Const", "attr": {"value": {"tensor": {"dtype": "DT_INT32", "tensorShape": {}}}, "dtype": {"type": "DT_INT32"}}}, {"name": "ConstantFolding/model_442/tf.concat_169/concat_partial_split_1", "op": "Const", "attr": {"value": {"tensor": {"dtype": "DT_INT64", "tensorShape": {"dim": [{"size": "1200"}, {"size": "32"}, {"size": "8"}, {"size": "2"}]}}}, "dtype": {"type": "DT_INT64"}}}, {"name": "model_442/tf.concat_169/concat/axis", "op": "Const", "attr": {"value": {"tensor": {"dtype": "DT_INT32", "tensorShape": {}}}, "dtype": {"type": "DT_INT32"}}}, {"name": "model_442/tf.compat.v1.transpose_1313/transpose/perm", "op": "Const", "attr": {"value": {"tensor": {"dtype": "DT_INT32", "tensorShape": {"dim": [{"size": "3"}]}}}, "dtype": {"type": "DT_INT32"}}}, {"name": "model_442/tf.math.add_452/Add/y", "op": "Const", "attr": {"value": {"tensor": {"dtype": "DT_FLOAT", "tensorShape": {}}}, "dtype": {"type": "DT_FLOAT"}}}, {"name": "model_442/tf.math.multiply_1167/Mul/y", "op": "Const", "attr": {"value": {"tensor": {"dtype": "DT_FLOAT", "tensorShape": {}}}, "dtype": {"type": "DT_FLOAT"}}}, {"name": "model_442/tf.math.subtract_235/Sub/y", "op": "Const", "attr": {"value": {"tensor": {"dtype": "DT_FLOAT", "tensorShape": {}}}, "dtype": {"type": "DT_FLOAT"}}}, {"name": "model_442/tf.math.multiply_1168/Mul/y", "op": "Const", "attr": {"value": {"tensor": {"dtype": "DT_FLOAT", "tensorShape": {}}}, "dtype": {"type": "DT_FLOAT"}}}, {"name": "model_442/tf.reshape_855/Reshape/shape", "op": "Const", "attr": {"value": {"tensor": {"dtype": "DT_INT32", "tensorShape": {"dim": [{"size": "2"}]}}}, "dtype": {"type": "DT_INT32"}}}, {"name": "model_442/tf.split_33/split/split_dim", "op": "Const", "attr": {"value": {"tensor": {"dtype": "DT_INT32", "tensorShape": {}}}, "dtype": {"type": "DT_INT32"}}}, {"name": "model_442/tf.compat.v1.gather_18/GatherV2/indices", "op": "Const", "attr": {"value": {"tensor": {"dtype": "DT_INT32", "tensorShape": {}}}, "dtype": {"type": "DT_INT32"}}}, {"name": "model_442/tf.compat.v1.gather_18/GatherV2/axis", "op": "Const", "attr": {"value": {"tensor": {"dtype": "DT_INT32", "tensorShape": {}}}, "dtype": {"type": "DT_INT32"}}}, {"name": "model_442/tf.compat.v1.transpose_1280/transpose/perm", "op": "Const", "attr": {"value": {"tensor": {"dtype": "DT_INT32", "tensorShape": {"dim": [{"size": "5"}]}}}, "dtype": {"type": "DT_INT32"}}}, {"name": "model_442/tf.reshape_835/Reshape/shape", "op": "Const", "attr": {"value": {"tensor": {"dtype": "DT_INT32", "tensorShape": {"dim": [{"size": "4"}]}}}, "dtype": {"type": "DT_INT32"}}}, {"name": "model_442/tf.math.add_453/Add/y", "op": "Const", "attr": {"value": {"tensor": {"dtype": "DT_FLOAT", "tensorShape": {}}}, "dtype": {"type": "DT_FLOAT"}}}, {"name": "model_442/tf.math.multiply_1169/Mul/y", "op": "Const", "attr": {"value": {"tensor": {"dtype": "DT_FLOAT", "tensorShape": {}}}, "dtype": {"type": "DT_FLOAT"}}}, {"name": "model_442/tf.math.subtract_236/Sub/y", "op": "Const", "attr": {"value": {"tensor": {"dtype": "DT_FLOAT", "tensorShape": {}}}, "dtype": {"type": "DT_FLOAT"}}}, {"name": "model_442/tf.math.multiply_1170/Mul/y", "op": "Const", "attr": {"value": {"tensor": {"dtype": "DT_FLOAT", "tensorShape": {}}}, "dtype": {"type": "DT_FLOAT"}}}, {"name": "model_442/tf.reshape_856/Reshape/shape", "op": "Const", "attr": {"value": {"tensor": {"dtype": "DT_INT32", "tensorShape": {"dim": [{"size": "2"}]}}}, "dtype": {"type": "DT_INT32"}}}, {"name": "model_442/tf.expand_dims_337/ExpandDims/dim", "op": "Const", "attr": {"value": {"tensor": {"dtype": "DT_INT32", "tensorShape": {}}}, "dtype": {"type": "DT_INT32"}}}, {"name": "model_442/tf.reshape_870/Reshape/shape", "op": "Const", "attr": {"value": {"tensor": {"dtype": "DT_INT32", "tensorShape": {"dim": [{"size": "4"}]}}}, "dtype": {"type": "DT_INT32"}}}, {"name": "model_442/tf.compat.v1.transpose_1323/transpose/perm", "op": "Const", "attr": {"value": {"tensor": {"dtype": "DT_INT32", "tensorShape": {"dim": [{"size": "4"}]}}}, "dtype": {"type": "DT_INT32"}}}, {"name": "model_442/tf.expand_dims_376/ExpandDims/dim", "op": "Const", "attr": {"value": {"tensor": {"dtype": "DT_INT32", "tensorShape": {}}}, "dtype": {"type": "DT_INT32"}}}, {"name": "model_442/tf.expand_dims_360/ExpandDims/dim", "op": "Const", "attr": {"value": {"tensor": {"dtype": "DT_INT32", "tensorShape": {}}}, "dtype": {"type": "DT_INT32"}}}, {"name": "model_442/tf.math.multiply_1206/Mul/y", "op": "Const", "attr": {"value": {"tensor": {"dtype": "DT_INT64", "tensorShape": {"dim": [{"size": "1"}, {"size": "32"}, {"size": "1"}]}}}, "dtype": {"type": "DT_INT64"}}}, {"name": "model_442/tf.tensor_scatter_nd_update_71/TensorScatterUpdate", "op": "Const", "attr": {"value": {"tensor": {"dtype": "DT_INT32", "tensorShape": {"dim": [{"size": "3"}]}}}, "dtype": {"type": "DT_INT32"}}}, {"name": "model_442/tf.expand_dims_372/ExpandDims/dim", "op": "Const", "attr": {"value": {"tensor": {"dtype": "DT_INT32", "tensorShape": {}}}, "dtype": {"type": "DT_INT32"}}}, {"name": "ConstantFolding/model_442/tf.concat_180/concat_partial_split_1", "op": "Const", "attr": {"value": {"tensor": {"dtype": "DT_INT64", "tensorShape": {"dim": [{"size": "1200"}, {"size": "32"}, {"size": "8"}, {"size": "2"}]}}}, "dtype": {"type": "DT_INT64"}}}, {"name": "model_442/tf.concat_180/concat/axis", "op": "Const", "attr": {"value": {"tensor": {"dtype": "DT_INT32", "tensorShape": {}}}, "dtype": {"type": "DT_INT32"}}}, {"name": "model_442/tf.compat.v1.transpose_1337/transpose/perm", "op": "Const", "attr": {"value": {"tensor": {"dtype": "DT_INT32", "tensorShape": {"dim": [{"size": "3"}]}}}, "dtype": {"type": "DT_INT32"}}}, {"name": "model_442/tf.expand_dims_355/ExpandDims/dim", "op": "Const", "attr": {"value": {"tensor": {"dtype": "DT_INT32", "tensorShape": {}}}, "dtype": {"type": "DT_INT32"}}}, {"name": "model_442/tf.math.greater_105/Greater/y", "op": "Const", "attr": {"value": {"tensor": {"dtype": "DT_INT64", "tensorShape": {}}}, "dtype": {"type": "DT_INT64"}}}, {"name": "model_442/tf.where_157/SelectV2/t", "op": "Const", "attr": {"value": {"tensor": {"dtype": "DT_INT64", "tensorShape": {}}}, "dtype": {"type": "DT_INT64"}}}, {"name": "model_442/tf.math.less_107/Less/y", "op": "Const", "attr": {"value": {"tensor": {"dtype": "DT_INT64", "tensorShape": {}}}, "dtype": {"type": "DT_INT64"}}}, {"name": "model_442/tf.where_156/SelectV2/t", "op": "Const", "attr": {"value": {"tensor": {"dtype": "DT_INT64", "tensorShape": {}}}, "dtype": {"type": "DT_INT64"}}}, {"name": "model_442/tf.expand_dims_362/ExpandDims/dim", "op": "Const", "attr": {"value": {"tensor": {"dtype": "DT_INT32", "tensorShape": {}}}, "dtype": {"type": "DT_INT32"}}}, {"name": "model_442/tf.math.multiply_1208/Mul/y", "op": "Const", "attr": {"value": {"tensor": {"dtype": "DT_INT64", "tensorShape": {"dim": [{"size": "1"}, {"size": "32"}, {"size": "1"}]}}}, "dtype": {"type": "DT_INT64"}}}, {"name": "model_442/tf.tensor_scatter_nd_update_70/TensorScatterUpdate", "op": "Const", "attr": {"value": {"tensor": {"dtype": "DT_INT32", "tensorShape": {"dim": [{"size": "3"}]}}}, "dtype": {"type": "DT_INT32"}}}, {"name": "model_442/tf.expand_dims_369/ExpandDims/dim", "op": "Const", "attr": {"value": {"tensor": {"dtype": "DT_INT32", "tensorShape": {}}}, "dtype": {"type": "DT_INT32"}}}, {"name": "ConstantFolding/model_442/tf.concat_179/concat_partial_split_1", "op": "Const", "attr": {"value": {"tensor": {"dtype": "DT_INT64", "tensorShape": {"dim": [{"size": "1200"}, {"size": "32"}, {"size": "8"}, {"size": "2"}]}}}, "dtype": {"type": "DT_INT64"}}}, {"name": "model_442/tf.concat_179/concat/axis", "op": "Const", "attr": {"value": {"tensor": {"dtype": "DT_INT32", "tensorShape": {}}}, "dtype": {"type": "DT_INT32"}}}, {"name": "model_442/tf.compat.v1.transpose_1334/transpose/perm", "op": "Const", "attr": {"value": {"tensor": {"dtype": "DT_INT32", "tensorShape": {"dim": [{"size": "3"}]}}}, "dtype": {"type": "DT_INT32"}}}, {"name": "model_442/tf.expand_dims_356/ExpandDims/dim", "op": "Const", "attr": {"value": {"tensor": {"dtype": "DT_INT32", "tensorShape": {}}}, "dtype": {"type": "DT_INT32"}}}, {"name": "model_442/tf.math.greater_107/Greater/y", "op": "Const", "attr": {"value": {"tensor": {"dtype": "DT_INT64", "tensorShape": {}}}, "dtype": {"type": "DT_INT64"}}}, {"name": "model_442/tf.where_161/SelectV2/t", "op": "Const", "attr": {"value": {"tensor": {"dtype": "DT_INT64", "tensorShape": {}}}, "dtype": {"type": "DT_INT64"}}}, {"name": "model_442/tf.math.less_109/Less/y", "op": "Const", "attr": {"value": {"tensor": {"dtype": "DT_INT64", "tensorShape": {}}}, "dtype": {"type": "DT_INT64"}}}, {"name": "model_442/tf.where_160/SelectV2/t", "op": "Const", "attr": {"value": {"tensor": {"dtype": "DT_INT64", "tensorShape": {}}}, "dtype": {"type": "DT_INT64"}}}, {"name": "model_442/tf.math.multiply_1204/Mul/y", "op": "Const", "attr": {"value": {"tensor": {"dtype": "DT_INT64", "tensorShape": {}}}, "dtype": {"type": "DT_INT64"}}}, {"name": "model_442/tf.expand_dims_359/ExpandDims/dim", "op": "Const", "attr": {"value": {"tensor": {"dtype": "DT_INT32", "tensorShape": {}}}, "dtype": {"type": "DT_INT32"}}}, {"name": "model_442/tf.math.multiply_1205/Mul/y", "op": "Const", "attr": {"value": {"tensor": {"dtype": "DT_INT64", "tensorShape": {"dim": [{"size": "1"}, {"size": "32"}, {"size": "1"}]}}}, "dtype": {"type": "DT_INT64"}}}, {"name": "model_442/tf.tensor_scatter_nd_update_69/TensorScatterUpdate", "op": "Const", "attr": {"value": {"tensor": {"dtype": "DT_INT32", "tensorShape": {"dim": [{"size": "3"}]}}}, "dtype": {"type": "DT_INT32"}}}, {"name": "model_442/tf.expand_dims_366/ExpandDims/dim", "op": "Const", "attr": {"value": {"tensor": {"dtype": "DT_INT32", "tensorShape": {}}}, "dtype": {"type": "DT_INT32"}}}, {"name": "ConstantFolding/model_442/tf.concat_178/concat_partial_split_1", "op": "Const", "attr": {"value": {"tensor": {"dtype": "DT_INT64", "tensorShape": {"dim": [{"size": "1200"}, {"size": "32"}, {"size": "8"}, {"size": "2"}]}}}, "dtype": {"type": "DT_INT64"}}}, {"name": "model_442/tf.concat_178/concat/axis", "op": "Const", "attr": {"value": {"tensor": {"dtype": "DT_INT32", "tensorShape": {}}}, "dtype": {"type": "DT_INT32"}}}, {"name": "model_442/tf.compat.v1.transpose_1331/transpose/perm", "op": "Const", "attr": {"value": {"tensor": {"dtype": "DT_INT32", "tensorShape": {"dim": [{"size": "3"}]}}}, "dtype": {"type": "DT_INT32"}}}, {"name": "model_442/tf.expand_dims_358/ExpandDims/dim", "op": "Const", "attr": {"value": {"tensor": {"dtype": "DT_INT32", "tensorShape": {}}}, "dtype": {"type": "DT_INT32"}}}, {"name": "model_442/tf.linalg.matmul_15/MatMul/b", "op": "Const", "attr": {"value": {"tensor": {"dtype": "DT_FLOAT", "tensorShape": {"dim": [{"size": "256"}, {"size": "256"}]}}}, "dtype": {"type": "DT_FLOAT"}}}, {"name": "model_442/tf.__operators__.add_11/AddV2/y", "op": "Const", "attr": {"value": {"tensor": {"dtype": "DT_FLOAT", "tensorShape": {"dim": [{"size": "256"}]}}}, "dtype": {"type": "DT_FLOAT"}}}, {"name": "model_442/tf.reshape_68/Reshape/shape", "op": "Const", "attr": {"value": {"tensor": {"dtype": "DT_INT32", "tensorShape": {"dim": [{"size": "4"}]}}}, "dtype": {"type": "DT_INT32"}}}, {"name": "model_442/tf.strided_slice_35/ones_like/tensor", "op": "Const", "attr": {"value": {"tensor": {"dtype": "DT_INT64", "tensorShape": {"dim": [{"size": "4"}]}}}, "dtype": {"type": "DT_INT64"}}}, {"name": "model_442/tf.strided_slice_35/StridedSlice/end", "op": "Const", "attr": {"value": {"tensor": {"dtype": "DT_INT64", "tensorShape": {"dim": [{"size": "4"}]}}}, "dtype": {"type": "DT_INT64"}}}, {"name": "model_442/tf.strided_slice_35/ones_like", "op": "Const", "attr": {"value": {"tensor": {"dtype": "DT_INT64", "tensorShape": {"dim": [{"size": "4"}]}}}, "dtype": {"type": "DT_INT64"}}}, {"name": "model_442/tf.reshape_123/Reshape/shape", "op": "Const", "attr": {"value": {"tensor": {"dtype": "DT_INT32", "tensorShape": {"dim": [{"size": "3"}]}}}, "dtype": {"type": "DT_INT32"}}}, {"name": "model_442/tf.compat.v1.transpose_316/transpose/perm", "op": "Const", "attr": {"value": {"tensor": {"dtype": "DT_INT32", "tensorShape": {"dim": [{"size": "3"}]}}}, "dtype": {"type": "DT_INT32"}}}, {"name": "model_442/tf.reshape_181/Reshape/shape", "op": "Const", "attr": {"value": {"tensor": {"dtype": "DT_INT32", "tensorShape": {"dim": [{"size": "4"}]}}}, "dtype": {"type": "DT_INT32"}}}, {"name": "model_442/tf.compat.v1.transpose_1324/transpose/perm", "op": "Const", "attr": {"value": {"tensor": {"dtype": "DT_INT32", "tensorShape": {"dim": [{"size": "4"}]}}}, "dtype": {"type": "DT_INT32"}}}, {"name": "model_442/tf.compat.v1.pad_34/Pad/paddings", "op": "Const", "attr": {"value": {"tensor": {"dtype": "DT_INT32", "tensorShape": {"dim": [{"size": "4"}, {"size": "2"}]}}}, "dtype": {"type": "DT_INT32"}}}, {"name": "model_442/tf.reshape_873/Reshape/shape", "op": "Const", "attr": {"value": {"tensor": {"dtype": "DT_INT32", "tensorShape": {"dim": [{"size": "3"}]}}}, "dtype": {"type": "DT_INT32"}}}, {"name": "model_442/tf.compat.v1.transpose_1325/transpose/perm", "op": "Const", "attr": {"value": {"tensor": {"dtype": "DT_INT32", "tensorShape": {"dim": [{"size": "3"}]}}}, "dtype": {"type": "DT_INT32"}}}, {"name": "model_442/tf.math.greater_104/Greater/y", "op": "Const", "attr": {"value": {"tensor": {"dtype": "DT_INT64", "tensorShape": {}}}, "dtype": {"type": "DT_INT64"}}}, {"name": "model_442/tf.where_155/SelectV2/t", "op": "Const", "attr": {"value": {"tensor": {"dtype": "DT_INT64", "tensorShape": {}}}, "dtype": {"type": "DT_INT64"}}}, {"name": "model_442/tf.math.less_106/Less/y", "op": "Const", "attr": {"value": {"tensor": {"dtype": "DT_INT64", "tensorShape": {}}}, "dtype": {"type": "DT_INT64"}}}, {"name": "model_442/tf.where_154/SelectV2/t", "op": "Const", "attr": {"value": {"tensor": {"dtype": "DT_INT64", "tensorShape": {}}}, "dtype": {"type": "DT_INT64"}}}, {"name": "model_442/tf.math.add_467/Add/y", "op": "Const", "attr": {"value": {"tensor": {"dtype": "DT_FLOAT", "tensorShape": {}}}, "dtype": {"type": "DT_FLOAT"}}}, {"name": "model_442/tf.math.add_469/Add/y", "op": "Const", "attr": {"value": {"tensor": {"dtype": "DT_FLOAT", "tensorShape": {}}}, "dtype": {"type": "DT_FLOAT"}}}, {"name": "model_442/tf.math.greater_106/Greater/y", "op": "Const", "attr": {"value": {"tensor": {"dtype": "DT_INT64", "tensorShape": {}}}, "dtype": {"type": "DT_INT64"}}}, {"name": "model_442/tf.where_159/SelectV2/t", "op": "Const", "attr": {"value": {"tensor": {"dtype": "DT_INT64", "tensorShape": {}}}, "dtype": {"type": "DT_INT64"}}}, {"name": "model_442/tf.math.less_108/Less/y", "op": "Const", "attr": {"value": {"tensor": {"dtype": "DT_INT64", "tensorShape": {}}}, "dtype": {"type": "DT_INT64"}}}, {"name": "model_442/tf.where_158/SelectV2/t", "op": "Const", "attr": {"value": {"tensor": {"dtype": "DT_INT64", "tensorShape": {}}}, "dtype": {"type": "DT_INT64"}}}, {"name": "model_442/tf.math.add_468/Add/y", "op": "Const", "attr": {"value": {"tensor": {"dtype": "DT_FLOAT", "tensorShape": {}}}, "dtype": {"type": "DT_FLOAT"}}}, {"name": "model_442/tf.math.add_470/Add/y", "op": "Const", "attr": {"value": {"tensor": {"dtype": "DT_FLOAT", "tensorShape": {}}}, "dtype": {"type": "DT_FLOAT"}}}, {"name": "model_442/tf.math.multiply_1203/Mul/y", "op": "Const", "attr": {"value": {"tensor": {"dtype": "DT_INT64", "tensorShape": {}}}, "dtype": {"type": "DT_INT64"}}}, {"name": "model_442/tf.expand_dims_361/ExpandDims/dim", "op": "Const", "attr": {"value": {"tensor": {"dtype": "DT_INT32", "tensorShape": {}}}, "dtype": {"type": "DT_INT32"}}}, {"name": "model_442/tf.math.multiply_1207/Mul/y", "op": "Const", "attr": {"value": {"tensor": {"dtype": "DT_INT64", "tensorShape": {"dim": [{"size": "1"}, {"size": "32"}, {"size": "1"}]}}}, "dtype": {"type": "DT_INT64"}}}, {"name": "model_442/tf.tensor_scatter_nd_update_68/TensorScatterUpdate", "op": "Const", "attr": {"value": {"tensor": {"dtype": "DT_INT32", "tensorShape": {"dim": [{"size": "3"}]}}}, "dtype": {"type": "DT_INT32"}}}, {"name": "model_442/tf.expand_dims_363/ExpandDims/dim", "op": "Const", "attr": {"value": {"tensor": {"dtype": "DT_INT32", "tensorShape": {}}}, "dtype": {"type": "DT_INT32"}}}, {"name": "ConstantFolding/model_442/tf.concat_177/concat_partial_split_1", "op": "Const", "attr": {"value": {"tensor": {"dtype": "DT_INT64", "tensorShape": {"dim": [{"size": "1200"}, {"size": "32"}, {"size": "8"}, {"size": "2"}]}}}, "dtype": {"type": "DT_INT64"}}}, {"name": "model_442/tf.concat_177/concat/axis", "op": "Const", "attr": {"value": {"tensor": {"dtype": "DT_INT32", "tensorShape": {}}}, "dtype": {"type": "DT_INT32"}}}, {"name": "model_442/tf.compat.v1.transpose_1328/transpose/perm", "op": "Const", "attr": {"value": {"tensor": {"dtype": "DT_INT32", "tensorShape": {"dim": [{"size": "3"}]}}}, "dtype": {"type": "DT_INT32"}}}, {"name": "model_442/tf.math.add_465/Add/y", "op": "Const", "attr": {"value": {"tensor": {"dtype": "DT_FLOAT", "tensorShape": {}}}, "dtype": {"type": "DT_FLOAT"}}}, {"name": "model_442/tf.math.multiply_1195/Mul/y", "op": "Const", "attr": {"value": {"tensor": {"dtype": "DT_FLOAT", "tensorShape": {}}}, "dtype": {"type": "DT_FLOAT"}}}, {"name": "model_442/tf.math.subtract_248/Sub/y", "op": "Const", "attr": {"value": {"tensor": {"dtype": "DT_FLOAT", "tensorShape": {}}}, "dtype": {"type": "DT_FLOAT"}}}, {"name": "model_442/tf.math.multiply_1196/Mul/y", "op": "Const", "attr": {"value": {"tensor": {"dtype": "DT_FLOAT", "tensorShape": {}}}, "dtype": {"type": "DT_FLOAT"}}}, {"name": "model_442/tf.reshape_871/Reshape/shape", "op": "Const", "attr": {"value": {"tensor": {"dtype": "DT_INT32", "tensorShape": {"dim": [{"size": "2"}]}}}, "dtype": {"type": "DT_INT32"}}}, {"name": "model_442/tf.split_35/split/split_dim", "op": "Const", "attr": {"value": {"tensor": {"dtype": "DT_INT32", "tensorShape": {}}}, "dtype": {"type": "DT_INT32"}}}, {"name": "model_442/tf.strided_slice_59/StridedSlice/begin", "op": "Const", "attr": {"value": {"tensor": {"dtype": "DT_INT64", "tensorShape": {"dim": [{"size": "6"}]}}}, "dtype": {"type": "DT_INT64"}}}, {"name": "model_442/tf.strided_slice_59/StridedSlice/end", "op": "Const", "attr": {"value": {"tensor": {"dtype": "DT_INT64", "tensorShape": {"dim": [{"size": "6"}]}}}, "dtype": {"type": "DT_INT64"}}}, {"name": "model_442/tf.strided_slice_59/StridedSlice/strides", "op": "Const", "attr": {"value": {"tensor": {"dtype": "DT_INT64", "tensorShape": {"dim": [{"size": "6"}]}}}, "dtype": {"type": "DT_INT64"}}}, {"name": "model_442/tf.linalg.matmul_122/MatMul/b", "op": "Const", "attr": {"value": {"tensor": {"dtype": "DT_FLOAT", "tensorShape": {"dim": [{"size": "256"}, {"size": "192"}]}}}, "dtype": {"type": "DT_FLOAT"}}}, {"name": "model_442/tf.__operators__.add_201/AddV2/y", "op": "Const", "attr": {"value": {"tensor": {"dtype": "DT_FLOAT", "tensorShape": {"dim": [{"size": "192"}]}}}, "dtype": {"type": "DT_FLOAT"}}}, {"name": "model_442/tf.reshape_823/Reshape/shape", "op": "Const", "attr": {"value": {"tensor": {"dtype": "DT_INT32", "tensorShape": {"dim": [{"size": "6"}]}}}, "dtype": {"type": "DT_INT32"}}}, {"name": "model_442/tf.math.multiply_1119/Mul", "op": "Const", "attr": {"value": {"tensor": {"dtype": "DT_FLOAT", "tensorShape": {}}}, "dtype": {"type": "DT_FLOAT"}}}, {"name": "model_442/tf.reshape_801/Reshape/shape", "op": "Const", "attr": {"value": {"tensor": {"dtype": "DT_INT32", "tensorShape": {"dim": [{"size": "6"}]}}}, "dtype": {"type": "DT_INT32"}}}, {"name": "model_442/tf.strided_slice_57/StridedSlice/begin", "op": "Const", "attr": {"value": {"tensor": {"dtype": "DT_INT64", "tensorShape": {"dim": [{"size": "6"}]}}}, "dtype": {"type": "DT_INT64"}}}, {"name": "model_442/tf.strided_slice_57/StridedSlice/end", "op": "Const", "attr": {"value": {"tensor": {"dtype": "DT_INT64", "tensorShape": {"dim": [{"size": "6"}]}}}, "dtype": {"type": "DT_INT64"}}}, {"name": "model_442/tf.strided_slice_57/StridedSlice/strides", "op": "Const", "attr": {"value": {"tensor": {"dtype": "DT_INT64", "tensorShape": {"dim": [{"size": "6"}]}}}, "dtype": {"type": "DT_INT64"}}}, {"name": "model_442/tf.math.multiply_1125/Mul/y", "op": "Const", "attr": {"value": {"tensor": {"dtype": "DT_FLOAT", "tensorShape": {}}}, "dtype": {"type": "DT_FLOAT"}}}, {"name": "model_442/tf.math.subtract_214/Sub/y", "op": "Const", "attr": {"value": {"tensor": {"dtype": "DT_FLOAT", "tensorShape": {}}}, "dtype": {"type": "DT_FLOAT"}}}, {"name": "model_442/tf.compat.v1.gather_19/GatherV2/indices", "op": "Const", "attr": {"value": {"tensor": {"dtype": "DT_INT32", "tensorShape": {}}}, "dtype": {"type": "DT_INT32"}}}, {"name": "model_442/tf.compat.v1.gather_19/GatherV2/axis", "op": "Const", "attr": {"value": {"tensor": {"dtype": "DT_INT32", "tensorShape": {}}}, "dtype": {"type": "DT_INT32"}}}, {"name": "model_442/tf.compat.v1.transpose_1281/transpose/perm", "op": "Const", "attr": {"value": {"tensor": {"dtype": "DT_INT32", "tensorShape": {"dim": [{"size": "5"}]}}}, "dtype": {"type": "DT_INT32"}}}, {"name": "model_442/tf.reshape_838/Reshape/shape", "op": "Const", "attr": {"value": {"tensor": {"dtype": "DT_INT32", "tensorShape": {"dim": [{"size": "4"}]}}}, "dtype": {"type": "DT_INT32"}}}, {"name": "model_442/tf.math.add_466/Add/y", "op": "Const", "attr": {"value": {"tensor": {"dtype": "DT_FLOAT", "tensorShape": {}}}, "dtype": {"type": "DT_FLOAT"}}}, {"name": "model_442/tf.math.multiply_1197/Mul/y", "op": "Const", "attr": {"value": {"tensor": {"dtype": "DT_FLOAT", "tensorShape": {}}}, "dtype": {"type": "DT_FLOAT"}}}, {"name": "model_442/tf.math.subtract_249/Sub/y", "op": "Const", "attr": {"value": {"tensor": {"dtype": "DT_FLOAT", "tensorShape": {}}}, "dtype": {"type": "DT_FLOAT"}}}, {"name": "model_442/tf.math.multiply_1198/Mul/y", "op": "Const", "attr": {"value": {"tensor": {"dtype": "DT_FLOAT", "tensorShape": {}}}, "dtype": {"type": "DT_FLOAT"}}}, {"name": "model_442/tf.reshape_872/Reshape/shape", "op": "Const", "attr": {"value": {"tensor": {"dtype": "DT_INT32", "tensorShape": {"dim": [{"size": "2"}]}}}, "dtype": {"type": "DT_INT32"}}}, {"name": "model_442/tf.expand_dims_357/ExpandDims/dim", "op": "Const", "attr": {"value": {"tensor": {"dtype": "DT_INT32", "tensorShape": {}}}, "dtype": {"type": "DT_INT32"}}}, {"name": "model_442/tf.reshape_886/Reshape/shape", "op": "Const", "attr": {"value": {"tensor": {"dtype": "DT_INT32", "tensorShape": {"dim": [{"size": "4"}]}}}, "dtype": {"type": "DT_INT32"}}}, {"name": "model_442/tf.compat.v1.transpose_1338/transpose/perm", "op": "Const", "attr": {"value": {"tensor": {"dtype": "DT_INT32", "tensorShape": {"dim": [{"size": "4"}]}}}, "dtype": {"type": "DT_INT32"}}}, {"name": "model_442/tf.expand_dims_377/ExpandDims/dim", "op": "Const", "attr": {"value": {"tensor": {"dtype": "DT_INT32", "tensorShape": {}}}, "dtype": {"type": "DT_INT32"}}}, {"name": "model_442/tf.concat_181/concat/axis", "op": "Const", "attr": {"value": {"tensor": {"dtype": "DT_INT32", "tensorShape": {}}}, "dtype": {"type": "DT_INT32"}}}, {"name": "model_442/tf.compat.v1.transpose_1341/transpose/perm", "op": "Const", "attr": {"value": {"tensor": {"dtype": "DT_INT32", "tensorShape": {"dim": [{"size": "5"}]}}}, "dtype": {"type": "DT_INT32"}}}, {"name": "model_442/tf.reshape_889/Reshape/shape", "op": "Const", "attr": {"value": {"tensor": {"dtype": "DT_INT32", "tensorShape": {"dim": [{"size": "4"}]}}}, "dtype": {"type": "DT_INT32"}}}, {"name": "model_442/layer_normalization_18/batchnorm/ReadVariableOp", "op": "Const", "attr": {"value": {"tensor": {"dtype": "DT_FLOAT", "tensorShape": {"dim": [{"size": "256"}]}}}, "dtype": {"type": "DT_FLOAT"}}}, {"name": "model_442/tf.linalg.matmul_114/MatMul/b", "op": "Const", "attr": {"value": {"tensor": {"dtype": "DT_FLOAT", "tensorShape": {"dim": [{"size": "256"}, {"size": "256"}]}}}, "dtype": {"type": "DT_FLOAT"}}}, {"name": "model_442/tf.__operators__.add_197/AddV2/y", "op": "Const", "attr": {"value": {"tensor": {"dtype": "DT_FLOAT", "tensorShape": {"dim": [{"size": "256"}]}}}, "dtype": {"type": "DT_FLOAT"}}}, {"name": "model_442/tf.reshape_813/Reshape/shape", "op": "Const", "attr": {"value": {"tensor": {"dtype": "DT_INT32", "tensorShape": {"dim": [{"size": "3"}]}}}, "dtype": {"type": "DT_INT32"}}}, {"name": "model_442/tf.compat.v1.transpose_1252/transpose/perm", "op": "Const", "attr": {"value": {"tensor": {"dtype": "DT_INT32", "tensorShape": {"dim": [{"size": "3"}]}}}, "dtype": {"type": "DT_INT32"}}}, {"name": "model_442/tf.math.multiply_1107/Mul/y", "op": "Const", "attr": {"value": {"tensor": {"dtype": "DT_FLOAT", "tensorShape": {}}}, "dtype": {"type": "DT_FLOAT"}}}, {"name": "model_442/tf.compat.v1.transpose_1243/transpose/perm", "op": "Const", "attr": {"value": {"tensor": {"dtype": "DT_INT32", "tensorShape": {"dim": [{"size": "3"}]}}}, "dtype": {"type": "DT_INT32"}}}, {"name": "model_442/tf.reshape_812/Reshape/shape", "op": "Const", "attr": {"value": {"tensor": {"dtype": "DT_INT32", "tensorShape": {"dim": [{"size": "2"}]}}}, "dtype": {"type": "DT_INT32"}}}, {"name": "model_442/tf.linalg.matmul_115/MatMul/b", "op": "Const", "attr": {"value": {"tensor": {"dtype": "DT_FLOAT", "tensorShape": {"dim": [{"size": "256"}, {"size": "256"}]}}}, "dtype": {"type": "DT_FLOAT"}}}, {"name": "model_442/tf.__operators__.add_198/AddV2/y", "op": "Const", "attr": {"value": {"tensor": {"dtype": "DT_FLOAT", "tensorShape": {"dim": [{"size": "256"}]}}}, "dtype": {"type": "DT_FLOAT"}}}, {"name": "model_442/tf.reshape_814/Reshape/shape", "op": "Const", "attr": {"value": {"tensor": {"dtype": "DT_INT32", "tensorShape": {"dim": [{"size": "3"}]}}}, "dtype": {"type": "DT_INT32"}}}, {"name": "model_442/tf.compat.v1.transpose_1253/transpose/perm", "op": "Const", "attr": {"value": {"tensor": {"dtype": "DT_INT32", "tensorShape": {"dim": [{"size": "3"}]}}}, "dtype": {"type": "DT_INT32"}}}, {"name": "model_442/tf.compat.v1.transpose_1205/transpose/perm", "op": "Const", "attr": {"value": {"tensor": {"dtype": "DT_INT32", "tensorShape": {"dim": [{"size": "3"}]}}}, "dtype": {"type": "DT_INT32"}}}, {"name": "model_442/tf.reshape_790/Reshape/shape", "op": "Const", "attr": {"value": {"tensor": {"dtype": "DT_INT32", "tensorShape": {"dim": [{"size": "2"}]}}}, "dtype": {"type": "DT_INT32"}}}, {"name": "model_442/tf.linalg.matmul_109/MatMul/b", "op": "Const", "attr": {"value": {"tensor": {"dtype": "DT_FLOAT", "tensorShape": {"dim": [{"size": "256"}, {"size": "256"}]}}}, "dtype": {"type": "DT_FLOAT"}}}, {"name": "model_442/tf.__operators__.add_192/AddV2/y", "op": "Const", "attr": {"value": {"tensor": {"dtype": "DT_FLOAT", "tensorShape": {"dim": [{"size": "256"}]}}}, "dtype": {"type": "DT_FLOAT"}}}, {"name": "model_442/tf.reshape_792/Reshape/shape", "op": "Const", "attr": {"value": {"tensor": {"dtype": "DT_INT32", "tensorShape": {"dim": [{"size": "3"}]}}}, "dtype": {"type": "DT_INT32"}}}, {"name": "model_442/tf.compat.v1.transpose_1218/transpose/perm", "op": "Const", "attr": {"value": {"tensor": {"dtype": "DT_INT32", "tensorShape": {"dim": [{"size": "3"}]}}}, "dtype": {"type": "DT_INT32"}}}, {"name": "model_442/tf.compat.v1.transpose_1254/transpose/perm", "op": "Const", "attr": {"value": {"tensor": {"dtype": "DT_INT32", "tensorShape": {"dim": [{"size": "3"}]}}}, "dtype": {"type": "DT_INT32"}}}, {"name": "model_442/tf.reshape_817/Reshape/shape", "op": "Const", "attr": {"value": {"tensor": {"dtype": "DT_INT32", "tensorShape": {"dim": [{"size": "2"}]}}}, "dtype": {"type": "DT_INT32"}}}, {"name": "model_442/tf.linalg.matmul_120/MatMul/b", "op": "Const", "attr": {"value": {"tensor": {"dtype": "DT_FLOAT", "tensorShape": {"dim": [{"size": "256"}, {"size": "256"}]}}}, "dtype": {"type": "DT_FLOAT"}}}, {"name": "model_442/tf.__operators__.add_199/AddV2/y", "op": "Const", "attr": {"value": {"tensor": {"dtype": "DT_FLOAT", "tensorShape": {"dim": [{"size": "256"}]}}}, "dtype": {"type": "DT_FLOAT"}}}, {"name": "model_442/tf.reshape_818/Reshape/shape", "op": "Const", "attr": {"value": {"tensor": {"dtype": "DT_INT32", "tensorShape": {"dim": [{"size": "3"}]}}}, "dtype": {"type": "DT_INT32"}}}, {"name": "model_442/tf.compat.v1.transpose_1261/transpose/perm", "op": "Const", "attr": {"value": {"tensor": {"dtype": "DT_INT32", "tensorShape": {"dim": [{"size": "3"}]}}}, "dtype": {"type": "DT_INT32"}}}, {"name": "model_442/layer_normalization_18/moments/mean/reduction_indices", "op": "Const", "attr": {"value": {"tensor": {"dtype": "DT_INT32", "tensorShape": {"dim": [{"size": "1"}]}}}, "dtype": {"type": "DT_INT32"}}}, {"name": "model_442/layer_normalization_18/moments/variance/reduction_indices", "op": "Const", "attr": {"value": {"tensor": {"dtype": "DT_INT32", "tensorShape": {"dim": [{"size": "1"}]}}}, "dtype": {"type": "DT_INT32"}}}, {"name": "model_442/layer_normalization_18/batchnorm/add/y", "op": "Const", "attr": {"value": {"tensor": {"dtype": "DT_FLOAT", "tensorShape": {}}}, "dtype": {"type": "DT_FLOAT"}}}, {"name": "model_442/layer_normalization_18/batchnorm/mul/ReadVariableOp", "op": "Const", "attr": {"value": {"tensor": {"dtype": "DT_FLOAT", "tensorShape": {"dim": [{"size": "256"}]}}}, "dtype": {"type": "DT_FLOAT"}}}, {"name": "model_442/layer_normalization_17/batchnorm/ReadVariableOp", "op": "Const", "attr": {"value": {"tensor": {"dtype": "DT_FLOAT", "tensorShape": {"dim": [{"size": "256"}]}}}, "dtype": {"type": "DT_FLOAT"}}}, {"name": "model_442/layer_normalization_16/batchnorm/ReadVariableOp", "op": "Const", "attr": {"value": {"tensor": {"dtype": "DT_FLOAT", "tensorShape": {"dim": [{"size": "256"}]}}}, "dtype": {"type": "DT_FLOAT"}}}, {"name": "model_442/tf.expand_dims_257/ExpandDims/dim", "op": "Const", "attr": {"value": {"tensor": {"dtype": "DT_INT32", "tensorShape": {}}}, "dtype": {"type": "DT_INT32"}}}, {"name": "model_442/tf.math.multiply_1012/Mul/y", "op": "Const", "attr": {"value": {"tensor": {"dtype": "DT_INT64", "tensorShape": {"dim": [{"size": "1"}, {"size": "32"}, {"size": "1"}]}}}, "dtype": {"type": "DT_INT64"}}}, {"name": "model_442/tf.tensor_scatter_nd_update_51/TensorScatterUpdate", "op": "Const", "attr": {"value": {"tensor": {"dtype": "DT_INT32", "tensorShape": {"dim": [{"size": "3"}]}}}, "dtype": {"type": "DT_INT32"}}}, {"name": "model_442/tf.expand_dims_269/ExpandDims/dim", "op": "Const", "attr": {"value": {"tensor": {"dtype": "DT_INT32", "tensorShape": {}}}, "dtype": {"type": "DT_INT32"}}}, {"name": "ConstantFolding/model_442/tf.concat_139/concat_partial_split_1", "op": "Const", "attr": {"value": {"tensor": {"dtype": "DT_INT64", "tensorShape": {"dim": [{"size": "1200"}, {"size": "32"}, {"size": "8"}, {"size": "2"}]}}}, "dtype": {"type": "DT_INT64"}}}, {"name": "model_442/tf.concat_139/concat/axis", "op": "Const", "attr": {"value": {"tensor": {"dtype": "DT_INT32", "tensorShape": {}}}, "dtype": {"type": "DT_INT32"}}}, {"name": "model_442/tf.compat.v1.transpose_1145/transpose/perm", "op": "Const", "attr": {"value": {"tensor": {"dtype": "DT_INT32", "tensorShape": {"dim": [{"size": "3"}]}}}, "dtype": {"type": "DT_INT32"}}}, {"name": "model_442/tf.expand_dims_252/ExpandDims/dim", "op": "Const", "attr": {"value": {"tensor": {"dtype": "DT_INT32", "tensorShape": {}}}, "dtype": {"type": "DT_INT32"}}}, {"name": "model_442/tf.math.greater_75/Greater/y", "op": "Const", "attr": {"value": {"tensor": {"dtype": "DT_INT64", "tensorShape": {}}}, "dtype": {"type": "DT_INT64"}}}, {"name": "model_442/tf.where_112/SelectV2/t", "op": "Const", "attr": {"value": {"tensor": {"dtype": "DT_INT64", "tensorShape": {}}}, "dtype": {"type": "DT_INT64"}}}, {"name": "model_442/tf.math.less_77/Less/y", "op": "Const", "attr": {"value": {"tensor": {"dtype": "DT_INT64", "tensorShape": {}}}, "dtype": {"type": "DT_INT64"}}}, {"name": "model_442/tf.where_111/SelectV2/t", "op": "Const", "attr": {"value": {"tensor": {"dtype": "DT_INT64", "tensorShape": {}}}, "dtype": {"type": "DT_INT64"}}}, {"name": "model_442/tf.expand_dims_259/ExpandDims/dim", "op": "Const", "attr": {"value": {"tensor": {"dtype": "DT_INT32", "tensorShape": {}}}, "dtype": {"type": "DT_INT32"}}}, {"name": "model_442/tf.math.multiply_1014/Mul/y", "op": "Const", "attr": {"value": {"tensor": {"dtype": "DT_INT64", "tensorShape": {"dim": [{"size": "1"}, {"size": "32"}, {"size": "1"}]}}}, "dtype": {"type": "DT_INT64"}}}, {"name": "model_442/tf.tensor_scatter_nd_update_50/TensorScatterUpdate", "op": "Const", "attr": {"value": {"tensor": {"dtype": "DT_INT32", "tensorShape": {"dim": [{"size": "3"}]}}}, "dtype": {"type": "DT_INT32"}}}, {"name": "model_442/tf.expand_dims_266/ExpandDims/dim", "op": "Const", "attr": {"value": {"tensor": {"dtype": "DT_INT32", "tensorShape": {}}}, "dtype": {"type": "DT_INT32"}}}, {"name": "ConstantFolding/model_442/tf.concat_138/concat_partial_split_1", "op": "Const", "attr": {"value": {"tensor": {"dtype": "DT_INT64", "tensorShape": {"dim": [{"size": "1200"}, {"size": "32"}, {"size": "8"}, {"size": "2"}]}}}, "dtype": {"type": "DT_INT64"}}}, {"name": "model_442/tf.concat_138/concat/axis", "op": "Const", "attr": {"value": {"tensor": {"dtype": "DT_INT32", "tensorShape": {}}}, "dtype": {"type": "DT_INT32"}}}, {"name": "model_442/tf.compat.v1.transpose_1142/transpose/perm", "op": "Const", "attr": {"value": {"tensor": {"dtype": "DT_INT32", "tensorShape": {"dim": [{"size": "3"}]}}}, "dtype": {"type": "DT_INT32"}}}, {"name": "model_442/tf.expand_dims_253/ExpandDims/dim", "op": "Const", "attr": {"value": {"tensor": {"dtype": "DT_INT32", "tensorShape": {}}}, "dtype": {"type": "DT_INT32"}}}, {"name": "model_442/tf.math.greater_77/Greater/y", "op": "Const", "attr": {"value": {"tensor": {"dtype": "DT_INT64", "tensorShape": {}}}, "dtype": {"type": "DT_INT64"}}}, {"name": "model_442/tf.where_116/SelectV2/t", "op": "Const", "attr": {"value": {"tensor": {"dtype": "DT_INT64", "tensorShape": {}}}, "dtype": {"type": "DT_INT64"}}}, {"name": "model_442/tf.math.less_79/Less/y", "op": "Const", "attr": {"value": {"tensor": {"dtype": "DT_INT64", "tensorShape": {}}}, "dtype": {"type": "DT_INT64"}}}, {"name": "model_442/tf.where_115/SelectV2/t", "op": "Const", "attr": {"value": {"tensor": {"dtype": "DT_INT64", "tensorShape": {}}}, "dtype": {"type": "DT_INT64"}}}, {"name": "model_442/tf.math.multiply_1010/Mul/y", "op": "Const", "attr": {"value": {"tensor": {"dtype": "DT_INT64", "tensorShape": {}}}, "dtype": {"type": "DT_INT64"}}}, {"name": "model_442/tf.expand_dims_256/ExpandDims/dim", "op": "Const", "attr": {"value": {"tensor": {"dtype": "DT_INT32", "tensorShape": {}}}, "dtype": {"type": "DT_INT32"}}}, {"name": "model_442/tf.math.multiply_1011/Mul/y", "op": "Const", "attr": {"value": {"tensor": {"dtype": "DT_INT64", "tensorShape": {"dim": [{"size": "1"}, {"size": "32"}, {"size": "1"}]}}}, "dtype": {"type": "DT_INT64"}}}, {"name": "model_442/tf.tensor_scatter_nd_update_49/TensorScatterUpdate", "op": "Const", "attr": {"value": {"tensor": {"dtype": "DT_INT32", "tensorShape": {"dim": [{"size": "3"}]}}}, "dtype": {"type": "DT_INT32"}}}, {"name": "model_442/tf.expand_dims_263/ExpandDims/dim", "op": "Const", "attr": {"value": {"tensor": {"dtype": "DT_INT32", "tensorShape": {}}}, "dtype": {"type": "DT_INT32"}}}, {"name": "ConstantFolding/model_442/tf.concat_137/concat_partial_split_1", "op": "Const", "attr": {"value": {"tensor": {"dtype": "DT_INT64", "tensorShape": {"dim": [{"size": "1200"}, {"size": "32"}, {"size": "8"}, {"size": "2"}]}}}, "dtype": {"type": "DT_INT64"}}}, {"name": "model_442/tf.concat_137/concat/axis", "op": "Const", "attr": {"value": {"tensor": {"dtype": "DT_INT32", "tensorShape": {}}}, "dtype": {"type": "DT_INT32"}}}, {"name": "model_442/tf.compat.v1.transpose_1139/transpose/perm", "op": "Const", "attr": {"value": {"tensor": {"dtype": "DT_INT32", "tensorShape": {"dim": [{"size": "3"}]}}}, "dtype": {"type": "DT_INT32"}}}, {"name": "model_442/tf.expand_dims_255/ExpandDims/dim", "op": "Const", "attr": {"value": {"tensor": {"dtype": "DT_INT32", "tensorShape": {}}}, "dtype": {"type": "DT_INT32"}}}, {"name": "model_442/tf.strided_slice_30/ones_like/tensor", "op": "Const", "attr": {"value": {"tensor": {"dtype": "DT_INT64", "tensorShape": {"dim": [{"size": "4"}]}}}, "dtype": {"type": "DT_INT64"}}}, {"name": "model_442/tf.strided_slice_30/StridedSlice/end", "op": "Const", "attr": {"value": {"tensor": {"dtype": "DT_INT64", "tensorShape": {"dim": [{"size": "4"}]}}}, "dtype": {"type": "DT_INT64"}}}, {"name": "model_442/tf.strided_slice_30/ones_like", "op": "Const", "attr": {"value": {"tensor": {"dtype": "DT_INT64", "tensorShape": {"dim": [{"size": "4"}]}}}, "dtype": {"type": "DT_INT64"}}}, {"name": "model_442/tf.reshape_108/Reshape/shape", "op": "Const", "attr": {"value": {"tensor": {"dtype": "DT_INT32", "tensorShape": {"dim": [{"size": "3"}]}}}, "dtype": {"type": "DT_INT32"}}}, {"name": "model_442/tf.compat.v1.transpose_311/transpose/perm", "op": "Const", "attr": {"value": {"tensor": {"dtype": "DT_INT32", "tensorShape": {"dim": [{"size": "3"}]}}}, "dtype": {"type": "DT_INT32"}}}, {"name": "model_442/tf.reshape_166/Reshape/shape", "op": "Const", "attr": {"value": {"tensor": {"dtype": "DT_INT32", "tensorShape": {"dim": [{"size": "4"}]}}}, "dtype": {"type": "DT_INT32"}}}, {"name": "model_442/tf.compat.v1.transpose_1132/transpose/perm", "op": "Const", "attr": {"value": {"tensor": {"dtype": "DT_INT32", "tensorShape": {"dim": [{"size": "4"}]}}}, "dtype": {"type": "DT_INT32"}}}, {"name": "model_442/tf.compat.v1.pad_29/Pad/paddings", "op": "Const", "attr": {"value": {"tensor": {"dtype": "DT_INT32", "tensorShape": {"dim": [{"size": "4"}, {"size": "2"}]}}}, "dtype": {"type": "DT_INT32"}}}, {"name": "model_442/tf.reshape_721/Reshape/shape", "op": "Const", "attr": {"value": {"tensor": {"dtype": "DT_INT32", "tensorShape": {"dim": [{"size": "3"}]}}}, "dtype": {"type": "DT_INT32"}}}, {"name": "model_442/tf.compat.v1.transpose_1133/transpose/perm", "op": "Const", "attr": {"value": {"tensor": {"dtype": "DT_INT32", "tensorShape": {"dim": [{"size": "3"}]}}}, "dtype": {"type": "DT_INT32"}}}, {"name": "model_442/tf.math.greater_74/Greater/y", "op": "Const", "attr": {"value": {"tensor": {"dtype": "DT_INT64", "tensorShape": {}}}, "dtype": {"type": "DT_INT64"}}}, {"name": "model_442/tf.where_110/SelectV2/t", "op": "Const", "attr": {"value": {"tensor": {"dtype": "DT_INT64", "tensorShape": {}}}, "dtype": {"type": "DT_INT64"}}}, {"name": "model_442/tf.math.less_76/Less/y", "op": "Const", "attr": {"value": {"tensor": {"dtype": "DT_INT64", "tensorShape": {}}}, "dtype": {"type": "DT_INT64"}}}, {"name": "model_442/tf.where_109/SelectV2/t", "op": "Const", "attr": {"value": {"tensor": {"dtype": "DT_INT64", "tensorShape": {}}}, "dtype": {"type": "DT_INT64"}}}, {"name": "model_442/tf.math.add_395/Add/y", "op": "Const", "attr": {"value": {"tensor": {"dtype": "DT_FLOAT", "tensorShape": {}}}, "dtype": {"type": "DT_FLOAT"}}}, {"name": "model_442/tf.math.add_397/Add/y", "op": "Const", "attr": {"value": {"tensor": {"dtype": "DT_FLOAT", "tensorShape": {}}}, "dtype": {"type": "DT_FLOAT"}}}, {"name": "model_442/tf.math.greater_76/Greater/y", "op": "Const", "attr": {"value": {"tensor": {"dtype": "DT_INT64", "tensorShape": {}}}, "dtype": {"type": "DT_INT64"}}}, {"name": "model_442/tf.where_114/SelectV2/t", "op": "Const", "attr": {"value": {"tensor": {"dtype": "DT_INT64", "tensorShape": {}}}, "dtype": {"type": "DT_INT64"}}}, {"name": "model_442/tf.math.less_78/Less/y", "op": "Const", "attr": {"value": {"tensor": {"dtype": "DT_INT64", "tensorShape": {}}}, "dtype": {"type": "DT_INT64"}}}, {"name": "model_442/tf.where_113/SelectV2/t", "op": "Const", "attr": {"value": {"tensor": {"dtype": "DT_INT64", "tensorShape": {}}}, "dtype": {"type": "DT_INT64"}}}, {"name": "model_442/tf.math.add_396/Add/y", "op": "Const", "attr": {"value": {"tensor": {"dtype": "DT_FLOAT", "tensorShape": {}}}, "dtype": {"type": "DT_FLOAT"}}}, {"name": "model_442/tf.math.add_398/Add/y", "op": "Const", "attr": {"value": {"tensor": {"dtype": "DT_FLOAT", "tensorShape": {}}}, "dtype": {"type": "DT_FLOAT"}}}, {"name": "model_442/tf.math.multiply_1009/Mul/y", "op": "Const", "attr": {"value": {"tensor": {"dtype": "DT_INT64", "tensorShape": {}}}, "dtype": {"type": "DT_INT64"}}}, {"name": "model_442/tf.expand_dims_258/ExpandDims/dim", "op": "Const", "attr": {"value": {"tensor": {"dtype": "DT_INT32", "tensorShape": {}}}, "dtype": {"type": "DT_INT32"}}}, {"name": "model_442/tf.math.multiply_1013/Mul/y", "op": "Const", "attr": {"value": {"tensor": {"dtype": "DT_INT64", "tensorShape": {"dim": [{"size": "1"}, {"size": "32"}, {"size": "1"}]}}}, "dtype": {"type": "DT_INT64"}}}, {"name": "model_442/tf.tensor_scatter_nd_update_48/TensorScatterUpdate", "op": "Const", "attr": {"value": {"tensor": {"dtype": "DT_INT32", "tensorShape": {"dim": [{"size": "3"}]}}}, "dtype": {"type": "DT_INT32"}}}, {"name": "model_442/tf.expand_dims_260/ExpandDims/dim", "op": "Const", "attr": {"value": {"tensor": {"dtype": "DT_INT32", "tensorShape": {}}}, "dtype": {"type": "DT_INT32"}}}, {"name": "ConstantFolding/model_442/tf.concat_136/concat_partial_split_1", "op": "Const", "attr": {"value": {"tensor": {"dtype": "DT_INT64", "tensorShape": {"dim": [{"size": "1200"}, {"size": "32"}, {"size": "8"}, {"size": "2"}]}}}, "dtype": {"type": "DT_INT64"}}}, {"name": "model_442/tf.concat_136/concat/axis", "op": "Const", "attr": {"value": {"tensor": {"dtype": "DT_INT32", "tensorShape": {}}}, "dtype": {"type": "DT_INT32"}}}, {"name": "model_442/tf.compat.v1.transpose_1136/transpose/perm", "op": "Const", "attr": {"value": {"tensor": {"dtype": "DT_INT32", "tensorShape": {"dim": [{"size": "3"}]}}}, "dtype": {"type": "DT_INT32"}}}, {"name": "model_442/tf.math.add_393/Add/y", "op": "Const", "attr": {"value": {"tensor": {"dtype": "DT_FLOAT", "tensorShape": {}}}, "dtype": {"type": "DT_FLOAT"}}}, {"name": "model_442/tf.math.multiply_1001/Mul/y", "op": "Const", "attr": {"value": {"tensor": {"dtype": "DT_FLOAT", "tensorShape": {}}}, "dtype": {"type": "DT_FLOAT"}}}, {"name": "model_442/tf.math.subtract_180/Sub/y", "op": "Const", "attr": {"value": {"tensor": {"dtype": "DT_FLOAT", "tensorShape": {}}}, "dtype": {"type": "DT_FLOAT"}}}, {"name": "model_442/tf.math.multiply_1002/Mul/y", "op": "Const", "attr": {"value": {"tensor": {"dtype": "DT_FLOAT", "tensorShape": {}}}, "dtype": {"type": "DT_FLOAT"}}}, {"name": "model_442/tf.reshape_719/Reshape/shape", "op": "Const", "attr": {"value": {"tensor": {"dtype": "DT_INT32", "tensorShape": {"dim": [{"size": "2"}]}}}, "dtype": {"type": "DT_INT32"}}}, {"name": "model_442/tf.split_25/split/split_dim", "op": "Const", "attr": {"value": {"tensor": {"dtype": "DT_INT32", "tensorShape": {}}}, "dtype": {"type": "DT_INT32"}}}, {"name": "model_442/tf.compat.v1.gather_14/GatherV2/indices", "op": "Const", "attr": {"value": {"tensor": {"dtype": "DT_INT32", "tensorShape": {}}}, "dtype": {"type": "DT_INT32"}}}, {"name": "model_442/tf.compat.v1.gather_14/GatherV2/axis", "op": "Const", "attr": {"value": {"tensor": {"dtype": "DT_INT32", "tensorShape": {}}}, "dtype": {"type": "DT_INT32"}}}, {"name": "model_442/tf.compat.v1.transpose_1117/transpose/perm", "op": "Const", "attr": {"value": {"tensor": {"dtype": "DT_INT32", "tensorShape": {"dim": [{"size": "5"}]}}}, "dtype": {"type": "DT_INT32"}}}, {"name": "model_442/tf.reshape_712/Reshape/shape", "op": "Const", "attr": {"value": {"tensor": {"dtype": "DT_INT32", "tensorShape": {"dim": [{"size": "4"}]}}}, "dtype": {"type": "DT_INT32"}}}, {"name": "model_442/tf.math.add_394/Add/y", "op": "Const", "attr": {"value": {"tensor": {"dtype": "DT_FLOAT", "tensorShape": {}}}, "dtype": {"type": "DT_FLOAT"}}}, {"name": "model_442/tf.math.multiply_1003/Mul/y", "op": "Const", "attr": {"value": {"tensor": {"dtype": "DT_FLOAT", "tensorShape": {}}}, "dtype": {"type": "DT_FLOAT"}}}, {"name": "model_442/tf.math.subtract_181/Sub/y", "op": "Const", "attr": {"value": {"tensor": {"dtype": "DT_FLOAT", "tensorShape": {}}}, "dtype": {"type": "DT_FLOAT"}}}, {"name": "model_442/tf.math.multiply_1004/Mul/y", "op": "Const", "attr": {"value": {"tensor": {"dtype": "DT_FLOAT", "tensorShape": {}}}, "dtype": {"type": "DT_FLOAT"}}}, {"name": "model_442/tf.reshape_720/Reshape/shape", "op": "Const", "attr": {"value": {"tensor": {"dtype": "DT_INT32", "tensorShape": {"dim": [{"size": "2"}]}}}, "dtype": {"type": "DT_INT32"}}}, {"name": "model_442/tf.expand_dims_254/ExpandDims/dim", "op": "Const", "attr": {"value": {"tensor": {"dtype": "DT_INT32", "tensorShape": {}}}, "dtype": {"type": "DT_INT32"}}}, {"name": "model_442/tf.reshape_734/Reshape/shape", "op": "Const", "attr": {"value": {"tensor": {"dtype": "DT_INT32", "tensorShape": {"dim": [{"size": "4"}]}}}, "dtype": {"type": "DT_INT32"}}}, {"name": "model_442/tf.compat.v1.transpose_1146/transpose/perm", "op": "Const", "attr": {"value": {"tensor": {"dtype": "DT_INT32", "tensorShape": {"dim": [{"size": "4"}]}}}, "dtype": {"type": "DT_INT32"}}}, {"name": "model_442/tf.expand_dims_312/ExpandDims/dim", "op": "Const", "attr": {"value": {"tensor": {"dtype": "DT_INT32", "tensorShape": {}}}, "dtype": {"type": "DT_INT32"}}}, {"name": "model_442/tf.expand_dims_277/ExpandDims/dim", "op": "Const", "attr": {"value": {"tensor": {"dtype": "DT_INT32", "tensorShape": {}}}, "dtype": {"type": "DT_INT32"}}}, {"name": "model_442/tf.math.multiply_1040/Mul/y", "op": "Const", "attr": {"value": {"tensor": {"dtype": "DT_INT64", "tensorShape": {"dim": [{"size": "1"}, {"size": "32"}, {"size": "1"}]}}}, "dtype": {"type": "DT_INT64"}}}, {"name": "model_442/tf.tensor_scatter_nd_update_55/TensorScatterUpdate", "op": "Const", "attr": {"value": {"tensor": {"dtype": "DT_INT32", "tensorShape": {"dim": [{"size": "3"}]}}}, "dtype": {"type": "DT_INT32"}}}, {"name": "model_442/tf.expand_dims_289/ExpandDims/dim", "op": "Const", "attr": {"value": {"tensor": {"dtype": "DT_INT32", "tensorShape": {}}}, "dtype": {"type": "DT_INT32"}}}, {"name": "ConstantFolding/model_442/tf.concat_147/concat_partial_split_1", "op": "Const", "attr": {"value": {"tensor": {"dtype": "DT_INT64", "tensorShape": {"dim": [{"size": "1200"}, {"size": "32"}, {"size": "8"}, {"size": "2"}]}}}, "dtype": {"type": "DT_INT64"}}}, {"name": "model_442/tf.concat_147/concat/axis", "op": "Const", "attr": {"value": {"tensor": {"dtype": "DT_INT32", "tensorShape": {}}}, "dtype": {"type": "DT_INT32"}}}, {"name": "model_442/tf.compat.v1.transpose_1160/transpose/perm", "op": "Const", "attr": {"value": {"tensor": {"dtype": "DT_INT32", "tensorShape": {"dim": [{"size": "3"}]}}}, "dtype": {"type": "DT_INT32"}}}, {"name": "model_442/tf.expand_dims_272/ExpandDims/dim", "op": "Const", "attr": {"value": {"tensor": {"dtype": "DT_INT32", "tensorShape": {}}}, "dtype": {"type": "DT_INT32"}}}, {"name": "model_442/tf.math.greater_81/Greater/y", "op": "Const", "attr": {"value": {"tensor": {"dtype": "DT_INT64", "tensorShape": {}}}, "dtype": {"type": "DT_INT64"}}}, {"name": "model_442/tf.where_121/SelectV2/t", "op": "Const", "attr": {"value": {"tensor": {"dtype": "DT_INT64", "tensorShape": {}}}, "dtype": {"type": "DT_INT64"}}}, {"name": "model_442/tf.math.less_83/Less/y", "op": "Const", "attr": {"value": {"tensor": {"dtype": "DT_INT64", "tensorShape": {}}}, "dtype": {"type": "DT_INT64"}}}, {"name": "model_442/tf.where_120/SelectV2/t", "op": "Const", "attr": {"value": {"tensor": {"dtype": "DT_INT64", "tensorShape": {}}}, "dtype": {"type": "DT_INT64"}}}, {"name": "model_442/tf.expand_dims_279/ExpandDims/dim", "op": "Const", "attr": {"value": {"tensor": {"dtype": "DT_INT32", "tensorShape": {}}}, "dtype": {"type": "DT_INT32"}}}, {"name": "model_442/tf.math.multiply_1042/Mul/y", "op": "Const", "attr": {"value": {"tensor": {"dtype": "DT_INT64", "tensorShape": {"dim": [{"size": "1"}, {"size": "32"}, {"size": "1"}]}}}, "dtype": {"type": "DT_INT64"}}}, {"name": "model_442/tf.tensor_scatter_nd_update_54/TensorScatterUpdate", "op": "Const", "attr": {"value": {"tensor": {"dtype": "DT_INT32", "tensorShape": {"dim": [{"size": "3"}]}}}, "dtype": {"type": "DT_INT32"}}}, {"name": "model_442/tf.expand_dims_286/ExpandDims/dim", "op": "Const", "attr": {"value": {"tensor": {"dtype": "DT_INT32", "tensorShape": {}}}, "dtype": {"type": "DT_INT32"}}}, {"name": "ConstantFolding/model_442/tf.concat_146/concat_partial_split_1", "op": "Const", "attr": {"value": {"tensor": {"dtype": "DT_INT64", "tensorShape": {"dim": [{"size": "1200"}, {"size": "32"}, {"size": "8"}, {"size": "2"}]}}}, "dtype": {"type": "DT_INT64"}}}, {"name": "model_442/tf.concat_146/concat/axis", "op": "Const", "attr": {"value": {"tensor": {"dtype": "DT_INT32", "tensorShape": {}}}, "dtype": {"type": "DT_INT32"}}}, {"name": "model_442/tf.compat.v1.transpose_1157/transpose/perm", "op": "Const", "attr": {"value": {"tensor": {"dtype": "DT_INT32", "tensorShape": {"dim": [{"size": "3"}]}}}, "dtype": {"type": "DT_INT32"}}}, {"name": "model_442/tf.expand_dims_273/ExpandDims/dim", "op": "Const", "attr": {"value": {"tensor": {"dtype": "DT_INT32", "tensorShape": {}}}, "dtype": {"type": "DT_INT32"}}}, {"name": "model_442/tf.math.greater_83/Greater/y", "op": "Const", "attr": {"value": {"tensor": {"dtype": "DT_INT64", "tensorShape": {}}}, "dtype": {"type": "DT_INT64"}}}, {"name": "model_442/tf.where_125/SelectV2/t", "op": "Const", "attr": {"value": {"tensor": {"dtype": "DT_INT64", "tensorShape": {}}}, "dtype": {"type": "DT_INT64"}}}, {"name": "model_442/tf.math.less_85/Less/y", "op": "Const", "attr": {"value": {"tensor": {"dtype": "DT_INT64", "tensorShape": {}}}, "dtype": {"type": "DT_INT64"}}}, {"name": "model_442/tf.where_124/SelectV2/t", "op": "Const", "attr": {"value": {"tensor": {"dtype": "DT_INT64", "tensorShape": {}}}, "dtype": {"type": "DT_INT64"}}}, {"name": "model_442/tf.math.multiply_1038/Mul/y", "op": "Const", "attr": {"value": {"tensor": {"dtype": "DT_INT64", "tensorShape": {}}}, "dtype": {"type": "DT_INT64"}}}, {"name": "model_442/tf.expand_dims_276/ExpandDims/dim", "op": "Const", "attr": {"value": {"tensor": {"dtype": "DT_INT32", "tensorShape": {}}}, "dtype": {"type": "DT_INT32"}}}, {"name": "model_442/tf.math.multiply_1039/Mul/y", "op": "Const", "attr": {"value": {"tensor": {"dtype": "DT_INT64", "tensorShape": {"dim": [{"size": "1"}, {"size": "32"}, {"size": "1"}]}}}, "dtype": {"type": "DT_INT64"}}}, {"name": "model_442/tf.tensor_scatter_nd_update_53/TensorScatterUpdate", "op": "Const", "attr": {"value": {"tensor": {"dtype": "DT_INT32", "tensorShape": {"dim": [{"size": "3"}]}}}, "dtype": {"type": "DT_INT32"}}}, {"name": "model_442/tf.expand_dims_283/ExpandDims/dim", "op": "Const", "attr": {"value": {"tensor": {"dtype": "DT_INT32", "tensorShape": {}}}, "dtype": {"type": "DT_INT32"}}}, {"name": "ConstantFolding/model_442/tf.concat_145/concat_partial_split_1", "op": "Const", "attr": {"value": {"tensor": {"dtype": "DT_INT64", "tensorShape": {"dim": [{"size": "1200"}, {"size": "32"}, {"size": "8"}, {"size": "2"}]}}}, "dtype": {"type": "DT_INT64"}}}, {"name": "model_442/tf.concat_145/concat/axis", "op": "Const", "attr": {"value": {"tensor": {"dtype": "DT_INT32", "tensorShape": {}}}, "dtype": {"type": "DT_INT32"}}}, {"name": "model_442/tf.compat.v1.transpose_1154/transpose/perm", "op": "Const", "attr": {"value": {"tensor": {"dtype": "DT_INT32", "tensorShape": {"dim": [{"size": "3"}]}}}, "dtype": {"type": "DT_INT32"}}}, {"name": "model_442/tf.expand_dims_275/ExpandDims/dim", "op": "Const", "attr": {"value": {"tensor": {"dtype": "DT_INT32", "tensorShape": {}}}, "dtype": {"type": "DT_INT32"}}}, {"name": "model_442/tf.strided_slice_31/ones_like/tensor", "op": "Const", "attr": {"value": {"tensor": {"dtype": "DT_INT64", "tensorShape": {"dim": [{"size": "4"}]}}}, "dtype": {"type": "DT_INT64"}}}, {"name": "model_442/tf.strided_slice_31/StridedSlice/end", "op": "Const", "attr": {"value": {"tensor": {"dtype": "DT_INT64", "tensorShape": {"dim": [{"size": "4"}]}}}, "dtype": {"type": "DT_INT64"}}}, {"name": "model_442/tf.strided_slice_31/ones_like", "op": "Const", "attr": {"value": {"tensor": {"dtype": "DT_INT64", "tensorShape": {"dim": [{"size": "4"}]}}}, "dtype": {"type": "DT_INT64"}}}, {"name": "model_442/tf.reshape_111/Reshape/shape", "op": "Const", "attr": {"value": {"tensor": {"dtype": "DT_INT32", "tensorShape": {"dim": [{"size": "3"}]}}}, "dtype": {"type": "DT_INT32"}}}, {"name": "model_442/tf.compat.v1.transpose_312/transpose/perm", "op": "Const", "attr": {"value": {"tensor": {"dtype": "DT_INT32", "tensorShape": {"dim": [{"size": "3"}]}}}, "dtype": {"type": "DT_INT32"}}}, {"name": "model_442/tf.reshape_169/Reshape/shape", "op": "Const", "attr": {"value": {"tensor": {"dtype": "DT_INT32", "tensorShape": {"dim": [{"size": "4"}]}}}, "dtype": {"type": "DT_INT32"}}}, {"name": "model_442/tf.compat.v1.transpose_1147/transpose/perm", "op": "Const", "attr": {"value": {"tensor": {"dtype": "DT_INT32", "tensorShape": {"dim": [{"size": "4"}]}}}, "dtype": {"type": "DT_INT32"}}}, {"name": "model_442/tf.compat.v1.pad_30/Pad/paddings", "op": "Const", "attr": {"value": {"tensor": {"dtype": "DT_INT32", "tensorShape": {"dim": [{"size": "4"}, {"size": "2"}]}}}, "dtype": {"type": "DT_INT32"}}}, {"name": "model_442/tf.reshape_737/Reshape/shape", "op": "Const", "attr": {"value": {"tensor": {"dtype": "DT_INT32", "tensorShape": {"dim": [{"size": "3"}]}}}, "dtype": {"type": "DT_INT32"}}}, {"name": "model_442/tf.compat.v1.transpose_1148/transpose/perm", "op": "Const", "attr": {"value": {"tensor": {"dtype": "DT_INT32", "tensorShape": {"dim": [{"size": "3"}]}}}, "dtype": {"type": "DT_INT32"}}}, {"name": "model_442/tf.math.greater_80/Greater/y", "op": "Const", "attr": {"value": {"tensor": {"dtype": "DT_INT64", "tensorShape": {}}}, "dtype": {"type": "DT_INT64"}}}, {"name": "model_442/tf.where_119/SelectV2/t", "op": "Const", "attr": {"value": {"tensor": {"dtype": "DT_INT64", "tensorShape": {}}}, "dtype": {"type": "DT_INT64"}}}, {"name": "model_442/tf.math.less_82/Less/y", "op": "Const", "attr": {"value": {"tensor": {"dtype": "DT_INT64", "tensorShape": {}}}, "dtype": {"type": "DT_INT64"}}}, {"name": "model_442/tf.where_118/SelectV2/t", "op": "Const", "attr": {"value": {"tensor": {"dtype": "DT_INT64", "tensorShape": {}}}, "dtype": {"type": "DT_INT64"}}}, {"name": "model_442/tf.math.add_408/Add/y", "op": "Const", "attr": {"value": {"tensor": {"dtype": "DT_FLOAT", "tensorShape": {}}}, "dtype": {"type": "DT_FLOAT"}}}, {"name": "model_442/tf.math.add_410/Add/y", "op": "Const", "attr": {"value": {"tensor": {"dtype": "DT_FLOAT", "tensorShape": {}}}, "dtype": {"type": "DT_FLOAT"}}}, {"name": "model_442/tf.math.greater_82/Greater/y", "op": "Const", "attr": {"value": {"tensor": {"dtype": "DT_INT64", "tensorShape": {}}}, "dtype": {"type": "DT_INT64"}}}, {"name": "model_442/tf.where_123/SelectV2/t", "op": "Const", "attr": {"value": {"tensor": {"dtype": "DT_INT64", "tensorShape": {}}}, "dtype": {"type": "DT_INT64"}}}, {"name": "model_442/tf.math.less_84/Less/y", "op": "Const", "attr": {"value": {"tensor": {"dtype": "DT_INT64", "tensorShape": {}}}, "dtype": {"type": "DT_INT64"}}}, {"name": "model_442/tf.where_122/SelectV2/t", "op": "Const", "attr": {"value": {"tensor": {"dtype": "DT_INT64", "tensorShape": {}}}, "dtype": {"type": "DT_INT64"}}}, {"name": "model_442/tf.math.add_409/Add/y", "op": "Const", "attr": {"value": {"tensor": {"dtype": "DT_FLOAT", "tensorShape": {}}}, "dtype": {"type": "DT_FLOAT"}}}, {"name": "model_442/tf.math.add_411/Add/y", "op": "Const", "attr": {"value": {"tensor": {"dtype": "DT_FLOAT", "tensorShape": {}}}, "dtype": {"type": "DT_FLOAT"}}}, {"name": "model_442/tf.math.multiply_1037/Mul/y", "op": "Const", "attr": {"value": {"tensor": {"dtype": "DT_INT64", "tensorShape": {}}}, "dtype": {"type": "DT_INT64"}}}, {"name": "model_442/tf.expand_dims_278/ExpandDims/dim", "op": "Const", "attr": {"value": {"tensor": {"dtype": "DT_INT32", "tensorShape": {}}}, "dtype": {"type": "DT_INT32"}}}, {"name": "model_442/tf.math.multiply_1041/Mul/y", "op": "Const", "attr": {"value": {"tensor": {"dtype": "DT_INT64", "tensorShape": {"dim": [{"size": "1"}, {"size": "32"}, {"size": "1"}]}}}, "dtype": {"type": "DT_INT64"}}}, {"name": "model_442/tf.tensor_scatter_nd_update_52/TensorScatterUpdate", "op": "Const", "attr": {"value": {"tensor": {"dtype": "DT_INT32", "tensorShape": {"dim": [{"size": "3"}]}}}, "dtype": {"type": "DT_INT32"}}}, {"name": "model_442/tf.expand_dims_280/ExpandDims/dim", "op": "Const", "attr": {"value": {"tensor": {"dtype": "DT_INT32", "tensorShape": {}}}, "dtype": {"type": "DT_INT32"}}}, {"name": "ConstantFolding/model_442/tf.concat_144/concat_partial_split_1", "op": "Const", "attr": {"value": {"tensor": {"dtype": "DT_INT64", "tensorShape": {"dim": [{"size": "1200"}, {"size": "32"}, {"size": "8"}, {"size": "2"}]}}}, "dtype": {"type": "DT_INT64"}}}, {"name": "model_442/tf.concat_144/concat/axis", "op": "Const", "attr": {"value": {"tensor": {"dtype": "DT_INT32", "tensorShape": {}}}, "dtype": {"type": "DT_INT32"}}}, {"name": "model_442/tf.compat.v1.transpose_1151/transpose/perm", "op": "Const", "attr": {"value": {"tensor": {"dtype": "DT_INT32", "tensorShape": {"dim": [{"size": "3"}]}}}, "dtype": {"type": "DT_INT32"}}}, {"name": "model_442/tf.math.add_406/Add/y", "op": "Const", "attr": {"value": {"tensor": {"dtype": "DT_FLOAT", "tensorShape": {}}}, "dtype": {"type": "DT_FLOAT"}}}, {"name": "model_442/tf.math.multiply_1029/Mul/y", "op": "Const", "attr": {"value": {"tensor": {"dtype": "DT_FLOAT", "tensorShape": {}}}, "dtype": {"type": "DT_FLOAT"}}}, {"name": "model_442/tf.math.subtract_193/Sub/y", "op": "Const", "attr": {"value": {"tensor": {"dtype": "DT_FLOAT", "tensorShape": {}}}, "dtype": {"type": "DT_FLOAT"}}}, {"name": "model_442/tf.math.multiply_1030/Mul/y", "op": "Const", "attr": {"value": {"tensor": {"dtype": "DT_FLOAT", "tensorShape": {}}}, "dtype": {"type": "DT_FLOAT"}}}, {"name": "model_442/tf.reshape_735/Reshape/shape", "op": "Const", "attr": {"value": {"tensor": {"dtype": "DT_INT32", "tensorShape": {"dim": [{"size": "2"}]}}}, "dtype": {"type": "DT_INT32"}}}, {"name": "model_442/tf.split_27/split/split_dim", "op": "Const", "attr": {"value": {"tensor": {"dtype": "DT_INT32", "tensorShape": {}}}, "dtype": {"type": "DT_INT32"}}}, {"name": "model_442/tf.compat.v1.gather_15/GatherV2/indices", "op": "Const", "attr": {"value": {"tensor": {"dtype": "DT_INT32", "tensorShape": {}}}, "dtype": {"type": "DT_INT32"}}}, {"name": "model_442/tf.compat.v1.gather_15/GatherV2/axis", "op": "Const", "attr": {"value": {"tensor": {"dtype": "DT_INT32", "tensorShape": {}}}, "dtype": {"type": "DT_INT32"}}}, {"name": "model_442/tf.compat.v1.transpose_1118/transpose/perm", "op": "Const", "attr": {"value": {"tensor": {"dtype": "DT_INT32", "tensorShape": {"dim": [{"size": "5"}]}}}, "dtype": {"type": "DT_INT32"}}}, {"name": "model_442/tf.reshape_715/Reshape/shape", "op": "Const", "attr": {"value": {"tensor": {"dtype": "DT_INT32", "tensorShape": {"dim": [{"size": "4"}]}}}, "dtype": {"type": "DT_INT32"}}}, {"name": "model_442/tf.math.add_407/Add/y", "op": "Const", "attr": {"value": {"tensor": {"dtype": "DT_FLOAT", "tensorShape": {}}}, "dtype": {"type": "DT_FLOAT"}}}, {"name": "model_442/tf.math.multiply_1031/Mul/y", "op": "Const", "attr": {"value": {"tensor": {"dtype": "DT_FLOAT", "tensorShape": {}}}, "dtype": {"type": "DT_FLOAT"}}}, {"name": "model_442/tf.math.subtract_194/Sub/y", "op": "Const", "attr": {"value": {"tensor": {"dtype": "DT_FLOAT", "tensorShape": {}}}, "dtype": {"type": "DT_FLOAT"}}}, {"name": "model_442/tf.math.multiply_1032/Mul/y", "op": "Const", "attr": {"value": {"tensor": {"dtype": "DT_FLOAT", "tensorShape": {}}}, "dtype": {"type": "DT_FLOAT"}}}, {"name": "model_442/tf.reshape_736/Reshape/shape", "op": "Const", "attr": {"value": {"tensor": {"dtype": "DT_INT32", "tensorShape": {"dim": [{"size": "2"}]}}}, "dtype": {"type": "DT_INT32"}}}, {"name": "model_442/tf.expand_dims_274/ExpandDims/dim", "op": "Const", "attr": {"value": {"tensor": {"dtype": "DT_INT32", "tensorShape": {}}}, "dtype": {"type": "DT_INT32"}}}, {"name": "model_442/tf.reshape_750/Reshape/shape", "op": "Const", "attr": {"value": {"tensor": {"dtype": "DT_INT32", "tensorShape": {"dim": [{"size": "4"}]}}}, "dtype": {"type": "DT_INT32"}}}, {"name": "model_442/tf.compat.v1.transpose_1161/transpose/perm", "op": "Const", "attr": {"value": {"tensor": {"dtype": "DT_INT32", "tensorShape": {"dim": [{"size": "4"}]}}}, "dtype": {"type": "DT_INT32"}}}, {"name": "model_442/tf.expand_dims_313/ExpandDims/dim", "op": "Const", "attr": {"value": {"tensor": {"dtype": "DT_INT32", "tensorShape": {}}}, "dtype": {"type": "DT_INT32"}}}, {"name": "model_442/tf.expand_dims_297/ExpandDims/dim", "op": "Const", "attr": {"value": {"tensor": {"dtype": "DT_INT32", "tensorShape": {}}}, "dtype": {"type": "DT_INT32"}}}, {"name": "model_442/tf.math.multiply_1068/Mul/y", "op": "Const", "attr": {"value": {"tensor": {"dtype": "DT_INT64", "tensorShape": {"dim": [{"size": "1"}, {"size": "32"}, {"size": "1"}]}}}, "dtype": {"type": "DT_INT64"}}}, {"name": "model_442/tf.tensor_scatter_nd_update_59/TensorScatterUpdate", "op": "Const", "attr": {"value": {"tensor": {"dtype": "DT_INT32", "tensorShape": {"dim": [{"size": "3"}]}}}, "dtype": {"type": "DT_INT32"}}}, {"name": "model_442/tf.expand_dims_309/ExpandDims/dim", "op": "Const", "attr": {"value": {"tensor": {"dtype": "DT_INT32", "tensorShape": {}}}, "dtype": {"type": "DT_INT32"}}}, {"name": "ConstantFolding/model_442/tf.concat_155/concat_partial_split_1", "op": "Const", "attr": {"value": {"tensor": {"dtype": "DT_INT64", "tensorShape": {"dim": [{"size": "1200"}, {"size": "32"}, {"size": "8"}, {"size": "2"}]}}}, "dtype": {"type": "DT_INT64"}}}, {"name": "model_442/tf.concat_155/concat/axis", "op": "Const", "attr": {"value": {"tensor": {"dtype": "DT_INT32", "tensorShape": {}}}, "dtype": {"type": "DT_INT32"}}}, {"name": "model_442/tf.compat.v1.transpose_1175/transpose/perm", "op": "Const", "attr": {"value": {"tensor": {"dtype": "DT_INT32", "tensorShape": {"dim": [{"size": "3"}]}}}, "dtype": {"type": "DT_INT32"}}}, {"name": "model_442/tf.expand_dims_292/ExpandDims/dim", "op": "Const", "attr": {"value": {"tensor": {"dtype": "DT_INT32", "tensorShape": {}}}, "dtype": {"type": "DT_INT32"}}}, {"name": "model_442/tf.math.greater_87/Greater/y", "op": "Const", "attr": {"value": {"tensor": {"dtype": "DT_INT64", "tensorShape": {}}}, "dtype": {"type": "DT_INT64"}}}, {"name": "model_442/tf.where_130/SelectV2/t", "op": "Const", "attr": {"value": {"tensor": {"dtype": "DT_INT64", "tensorShape": {}}}, "dtype": {"type": "DT_INT64"}}}, {"name": "model_442/tf.math.less_89/Less/y", "op": "Const", "attr": {"value": {"tensor": {"dtype": "DT_INT64", "tensorShape": {}}}, "dtype": {"type": "DT_INT64"}}}, {"name": "model_442/tf.where_129/SelectV2/t", "op": "Const", "attr": {"value": {"tensor": {"dtype": "DT_INT64", "tensorShape": {}}}, "dtype": {"type": "DT_INT64"}}}, {"name": "model_442/tf.expand_dims_299/ExpandDims/dim", "op": "Const", "attr": {"value": {"tensor": {"dtype": "DT_INT32", "tensorShape": {}}}, "dtype": {"type": "DT_INT32"}}}, {"name": "model_442/tf.math.multiply_1070/Mul/y", "op": "Const", "attr": {"value": {"tensor": {"dtype": "DT_INT64", "tensorShape": {"dim": [{"size": "1"}, {"size": "32"}, {"size": "1"}]}}}, "dtype": {"type": "DT_INT64"}}}, {"name": "model_442/tf.tensor_scatter_nd_update_58/TensorScatterUpdate", "op": "Const", "attr": {"value": {"tensor": {"dtype": "DT_INT32", "tensorShape": {"dim": [{"size": "3"}]}}}, "dtype": {"type": "DT_INT32"}}}, {"name": "model_442/tf.expand_dims_306/ExpandDims/dim", "op": "Const", "attr": {"value": {"tensor": {"dtype": "DT_INT32", "tensorShape": {}}}, "dtype": {"type": "DT_INT32"}}}, {"name": "ConstantFolding/model_442/tf.concat_154/concat_partial_split_1", "op": "Const", "attr": {"value": {"tensor": {"dtype": "DT_INT64", "tensorShape": {"dim": [{"size": "1200"}, {"size": "32"}, {"size": "8"}, {"size": "2"}]}}}, "dtype": {"type": "DT_INT64"}}}, {"name": "model_442/tf.concat_154/concat/axis", "op": "Const", "attr": {"value": {"tensor": {"dtype": "DT_INT32", "tensorShape": {}}}, "dtype": {"type": "DT_INT32"}}}, {"name": "model_442/tf.compat.v1.transpose_1172/transpose/perm", "op": "Const", "attr": {"value": {"tensor": {"dtype": "DT_INT32", "tensorShape": {"dim": [{"size": "3"}]}}}, "dtype": {"type": "DT_INT32"}}}, {"name": "model_442/tf.expand_dims_293/ExpandDims/dim", "op": "Const", "attr": {"value": {"tensor": {"dtype": "DT_INT32", "tensorShape": {}}}, "dtype": {"type": "DT_INT32"}}}, {"name": "model_442/tf.math.greater_89/Greater/y", "op": "Const", "attr": {"value": {"tensor": {"dtype": "DT_INT64", "tensorShape": {}}}, "dtype": {"type": "DT_INT64"}}}, {"name": "model_442/tf.where_134/SelectV2/t", "op": "Const", "attr": {"value": {"tensor": {"dtype": "DT_INT64", "tensorShape": {}}}, "dtype": {"type": "DT_INT64"}}}, {"name": "model_442/tf.math.less_91/Less/y", "op": "Const", "attr": {"value": {"tensor": {"dtype": "DT_INT64", "tensorShape": {}}}, "dtype": {"type": "DT_INT64"}}}, {"name": "model_442/tf.where_133/SelectV2/t", "op": "Const", "attr": {"value": {"tensor": {"dtype": "DT_INT64", "tensorShape": {}}}, "dtype": {"type": "DT_INT64"}}}, {"name": "model_442/tf.math.multiply_1066/Mul/y", "op": "Const", "attr": {"value": {"tensor": {"dtype": "DT_INT64", "tensorShape": {}}}, "dtype": {"type": "DT_INT64"}}}, {"name": "model_442/tf.expand_dims_296/ExpandDims/dim", "op": "Const", "attr": {"value": {"tensor": {"dtype": "DT_INT32", "tensorShape": {}}}, "dtype": {"type": "DT_INT32"}}}, {"name": "model_442/tf.math.multiply_1067/Mul/y", "op": "Const", "attr": {"value": {"tensor": {"dtype": "DT_INT64", "tensorShape": {"dim": [{"size": "1"}, {"size": "32"}, {"size": "1"}]}}}, "dtype": {"type": "DT_INT64"}}}, {"name": "model_442/tf.tensor_scatter_nd_update_57/TensorScatterUpdate", "op": "Const", "attr": {"value": {"tensor": {"dtype": "DT_INT32", "tensorShape": {"dim": [{"size": "3"}]}}}, "dtype": {"type": "DT_INT32"}}}, {"name": "model_442/tf.expand_dims_303/ExpandDims/dim", "op": "Const", "attr": {"value": {"tensor": {"dtype": "DT_INT32", "tensorShape": {}}}, "dtype": {"type": "DT_INT32"}}}, {"name": "ConstantFolding/model_442/tf.concat_153/concat_partial_split_1", "op": "Const", "attr": {"value": {"tensor": {"dtype": "DT_INT64", "tensorShape": {"dim": [{"size": "1200"}, {"size": "32"}, {"size": "8"}, {"size": "2"}]}}}, "dtype": {"type": "DT_INT64"}}}, {"name": "model_442/tf.concat_153/concat/axis", "op": "Const", "attr": {"value": {"tensor": {"dtype": "DT_INT32", "tensorShape": {}}}, "dtype": {"type": "DT_INT32"}}}, {"name": "model_442/tf.compat.v1.transpose_1169/transpose/perm", "op": "Const", "attr": {"value": {"tensor": {"dtype": "DT_INT32", "tensorShape": {"dim": [{"size": "3"}]}}}, "dtype": {"type": "DT_INT32"}}}, {"name": "model_442/tf.expand_dims_295/ExpandDims/dim", "op": "Const", "attr": {"value": {"tensor": {"dtype": "DT_INT32", "tensorShape": {}}}, "dtype": {"type": "DT_INT32"}}}, {"name": "model_442/tf.linalg.matmul_14/MatMul/b", "op": "Const", "attr": {"value": {"tensor": {"dtype": "DT_FLOAT", "tensorShape": {"dim": [{"size": "256"}, {"size": "256"}]}}}, "dtype": {"type": "DT_FLOAT"}}}, {"name": "model_442/tf.__operators__.add_10/AddV2/y", "op": "Const", "attr": {"value": {"tensor": {"dtype": "DT_FLOAT", "tensorShape": {"dim": [{"size": "256"}]}}}, "dtype": {"type": "DT_FLOAT"}}}, {"name": "model_442/tf.reshape_67/Reshape/shape", "op": "Const", "attr": {"value": {"tensor": {"dtype": "DT_INT32", "tensorShape": {"dim": [{"size": "4"}]}}}, "dtype": {"type": "DT_INT32"}}}, {"name": "model_442/tf.strided_slice_32/ones_like/tensor", "op": "Const", "attr": {"value": {"tensor": {"dtype": "DT_INT64", "tensorShape": {"dim": [{"size": "4"}]}}}, "dtype": {"type": "DT_INT64"}}}, {"name": "model_442/tf.strided_slice_32/StridedSlice/end", "op": "Const", "attr": {"value": {"tensor": {"dtype": "DT_INT64", "tensorShape": {"dim": [{"size": "4"}]}}}, "dtype": {"type": "DT_INT64"}}}, {"name": "model_442/tf.strided_slice_32/ones_like", "op": "Const", "attr": {"value": {"tensor": {"dtype": "DT_INT64", "tensorShape": {"dim": [{"size": "4"}]}}}, "dtype": {"type": "DT_INT64"}}}, {"name": "model_442/tf.reshape_114/Reshape/shape", "op": "Const", "attr": {"value": {"tensor": {"dtype": "DT_INT32", "tensorShape": {"dim": [{"size": "3"}]}}}, "dtype": {"type": "DT_INT32"}}}, {"name": "model_442/tf.compat.v1.transpose_313/transpose/perm", "op": "Const", "attr": {"value": {"tensor": {"dtype": "DT_INT32", "tensorShape": {"dim": [{"size": "3"}]}}}, "dtype": {"type": "DT_INT32"}}}, {"name": "model_442/tf.reshape_172/Reshape/shape", "op": "Const", "attr": {"value": {"tensor": {"dtype": "DT_INT32", "tensorShape": {"dim": [{"size": "4"}]}}}, "dtype": {"type": "DT_INT32"}}}, {"name": "model_442/tf.compat.v1.transpose_1162/transpose/perm", "op": "Const", "attr": {"value": {"tensor": {"dtype": "DT_INT32", "tensorShape": {"dim": [{"size": "4"}]}}}, "dtype": {"type": "DT_INT32"}}}, {"name": "model_442/tf.compat.v1.pad_31/Pad/paddings", "op": "Const", "attr": {"value": {"tensor": {"dtype": "DT_INT32", "tensorShape": {"dim": [{"size": "4"}, {"size": "2"}]}}}, "dtype": {"type": "DT_INT32"}}}, {"name": "model_442/tf.reshape_753/Reshape/shape", "op": "Const", "attr": {"value": {"tensor": {"dtype": "DT_INT32", "tensorShape": {"dim": [{"size": "3"}]}}}, "dtype": {"type": "DT_INT32"}}}, {"name": "model_442/tf.compat.v1.transpose_1163/transpose/perm", "op": "Const", "attr": {"value": {"tensor": {"dtype": "DT_INT32", "tensorShape": {"dim": [{"size": "3"}]}}}, "dtype": {"type": "DT_INT32"}}}, {"name": "model_442/tf.math.greater_86/Greater/y", "op": "Const", "attr": {"value": {"tensor": {"dtype": "DT_INT64", "tensorShape": {}}}, "dtype": {"type": "DT_INT64"}}}, {"name": "model_442/tf.where_128/SelectV2/t", "op": "Const", "attr": {"value": {"tensor": {"dtype": "DT_INT64", "tensorShape": {}}}, "dtype": {"type": "DT_INT64"}}}, {"name": "model_442/tf.math.less_88/Less/y", "op": "Const", "attr": {"value": {"tensor": {"dtype": "DT_INT64", "tensorShape": {}}}, "dtype": {"type": "DT_INT64"}}}, {"name": "model_442/tf.where_127/SelectV2/t", "op": "Const", "attr": {"value": {"tensor": {"dtype": "DT_INT64", "tensorShape": {}}}, "dtype": {"type": "DT_INT64"}}}, {"name": "model_442/tf.math.add_421/Add/y", "op": "Const", "attr": {"value": {"tensor": {"dtype": "DT_FLOAT", "tensorShape": {}}}, "dtype": {"type": "DT_FLOAT"}}}, {"name": "model_442/tf.math.add_423/Add/y", "op": "Const", "attr": {"value": {"tensor": {"dtype": "DT_FLOAT", "tensorShape": {}}}, "dtype": {"type": "DT_FLOAT"}}}, {"name": "model_442/tf.math.greater_88/Greater/y", "op": "Const", "attr": {"value": {"tensor": {"dtype": "DT_INT64", "tensorShape": {}}}, "dtype": {"type": "DT_INT64"}}}, {"name": "model_442/tf.where_132/SelectV2/t", "op": "Const", "attr": {"value": {"tensor": {"dtype": "DT_INT64", "tensorShape": {}}}, "dtype": {"type": "DT_INT64"}}}, {"name": "model_442/tf.math.less_90/Less/y", "op": "Const", "attr": {"value": {"tensor": {"dtype": "DT_INT64", "tensorShape": {}}}, "dtype": {"type": "DT_INT64"}}}, {"name": "model_442/tf.where_131/SelectV2/t", "op": "Const", "attr": {"value": {"tensor": {"dtype": "DT_INT64", "tensorShape": {}}}, "dtype": {"type": "DT_INT64"}}}, {"name": "model_442/tf.math.add_422/Add/y", "op": "Const", "attr": {"value": {"tensor": {"dtype": "DT_FLOAT", "tensorShape": {}}}, "dtype": {"type": "DT_FLOAT"}}}, {"name": "model_442/tf.math.add_424/Add/y", "op": "Const", "attr": {"value": {"tensor": {"dtype": "DT_FLOAT", "tensorShape": {}}}, "dtype": {"type": "DT_FLOAT"}}}, {"name": "model_442/tf.math.multiply_1065/Mul/y", "op": "Const", "attr": {"value": {"tensor": {"dtype": "DT_INT64", "tensorShape": {}}}, "dtype": {"type": "DT_INT64"}}}, {"name": "model_442/tf.expand_dims_298/ExpandDims/dim", "op": "Const", "attr": {"value": {"tensor": {"dtype": "DT_INT32", "tensorShape": {}}}, "dtype": {"type": "DT_INT32"}}}, {"name": "model_442/tf.math.multiply_1069/Mul/y", "op": "Const", "attr": {"value": {"tensor": {"dtype": "DT_INT64", "tensorShape": {"dim": [{"size": "1"}, {"size": "32"}, {"size": "1"}]}}}, "dtype": {"type": "DT_INT64"}}}, {"name": "model_442/tf.tensor_scatter_nd_update_56/TensorScatterUpdate", "op": "Const", "attr": {"value": {"tensor": {"dtype": "DT_INT32", "tensorShape": {"dim": [{"size": "3"}]}}}, "dtype": {"type": "DT_INT32"}}}, {"name": "model_442/tf.expand_dims_300/ExpandDims/dim", "op": "Const", "attr": {"value": {"tensor": {"dtype": "DT_INT32", "tensorShape": {}}}, "dtype": {"type": "DT_INT32"}}}, {"name": "ConstantFolding/model_442/tf.concat_152/concat_partial_split_1", "op": "Const", "attr": {"value": {"tensor": {"dtype": "DT_INT64", "tensorShape": {"dim": [{"size": "1200"}, {"size": "32"}, {"size": "8"}, {"size": "2"}]}}}, "dtype": {"type": "DT_INT64"}}}, {"name": "model_442/tf.concat_152/concat/axis", "op": "Const", "attr": {"value": {"tensor": {"dtype": "DT_INT32", "tensorShape": {}}}, "dtype": {"type": "DT_INT32"}}}, {"name": "model_442/tf.compat.v1.transpose_1166/transpose/perm", "op": "Const", "attr": {"value": {"tensor": {"dtype": "DT_INT32", "tensorShape": {"dim": [{"size": "3"}]}}}, "dtype": {"type": "DT_INT32"}}}, {"name": "model_442/tf.math.add_419/Add/y", "op": "Const", "attr": {"value": {"tensor": {"dtype": "DT_FLOAT", "tensorShape": {}}}, "dtype": {"type": "DT_FLOAT"}}}, {"name": "model_442/tf.math.multiply_1057/Mul/y", "op": "Const", "attr": {"value": {"tensor": {"dtype": "DT_FLOAT", "tensorShape": {}}}, "dtype": {"type": "DT_FLOAT"}}}, {"name": "model_442/tf.math.subtract_206/Sub/y", "op": "Const", "attr": {"value": {"tensor": {"dtype": "DT_FLOAT", "tensorShape": {}}}, "dtype": {"type": "DT_FLOAT"}}}, {"name": "model_442/tf.math.multiply_1058/Mul/y", "op": "Const", "attr": {"value": {"tensor": {"dtype": "DT_FLOAT", "tensorShape": {}}}, "dtype": {"type": "DT_FLOAT"}}}, {"name": "model_442/tf.reshape_751/Reshape/shape", "op": "Const", "attr": {"value": {"tensor": {"dtype": "DT_INT32", "tensorShape": {"dim": [{"size": "2"}]}}}, "dtype": {"type": "DT_INT32"}}}, {"name": "model_442/tf.split_29/split/split_dim", "op": "Const", "attr": {"value": {"tensor": {"dtype": "DT_INT32", "tensorShape": {}}}, "dtype": {"type": "DT_INT32"}}}, {"name": "model_442/tf.strided_slice_55/StridedSlice/begin", "op": "Const", "attr": {"value": {"tensor": {"dtype": "DT_INT64", "tensorShape": {"dim": [{"size": "6"}]}}}, "dtype": {"type": "DT_INT64"}}}, {"name": "model_442/tf.strided_slice_55/StridedSlice/end", "op": "Const", "attr": {"value": {"tensor": {"dtype": "DT_INT64", "tensorShape": {"dim": [{"size": "6"}]}}}, "dtype": {"type": "DT_INT64"}}}, {"name": "model_442/tf.strided_slice_55/StridedSlice/strides", "op": "Const", "attr": {"value": {"tensor": {"dtype": "DT_INT64", "tensorShape": {"dim": [{"size": "6"}]}}}, "dtype": {"type": "DT_INT64"}}}, {"name": "model_442/tf.linalg.matmul_104/MatMul/b", "op": "Const", "attr": {"value": {"tensor": {"dtype": "DT_FLOAT", "tensorShape": {"dim": [{"size": "256"}, {"size": "192"}]}}}, "dtype": {"type": "DT_FLOAT"}}}, {"name": "model_442/tf.__operators__.add_166/AddV2/y", "op": "Const", "attr": {"value": {"tensor": {"dtype": "DT_FLOAT", "tensorShape": {"dim": [{"size": "192"}]}}}, "dtype": {"type": "DT_FLOAT"}}}, {"name": "model_442/tf.reshape_703/Reshape/shape", "op": "Const", "attr": {"value": {"tensor": {"dtype": "DT_INT32", "tensorShape": {"dim": [{"size": "6"}]}}}, "dtype": {"type": "DT_INT32"}}}, {"name": "model_442/tf.math.multiply_981/Mul", "op": "Const", "attr": {"value": {"tensor": {"dtype": "DT_FLOAT", "tensorShape": {}}}, "dtype": {"type": "DT_FLOAT"}}}, {"name": "model_442/tf.reshape_681/Reshape/shape", "op": "Const", "attr": {"value": {"tensor": {"dtype": "DT_INT32", "tensorShape": {"dim": [{"size": "6"}]}}}, "dtype": {"type": "DT_INT32"}}}, {"name": "model_442/tf.strided_slice_53/StridedSlice/begin", "op": "Const", "attr": {"value": {"tensor": {"dtype": "DT_INT64", "tensorShape": {"dim": [{"size": "6"}]}}}, "dtype": {"type": "DT_INT64"}}}, {"name": "model_442/tf.strided_slice_53/StridedSlice/end", "op": "Const", "attr": {"value": {"tensor": {"dtype": "DT_INT64", "tensorShape": {"dim": [{"size": "6"}]}}}, "dtype": {"type": "DT_INT64"}}}, {"name": "model_442/tf.strided_slice_53/StridedSlice/strides", "op": "Const", "attr": {"value": {"tensor": {"dtype": "DT_INT64", "tensorShape": {"dim": [{"size": "6"}]}}}, "dtype": {"type": "DT_INT64"}}}, {"name": "model_442/tf.math.multiply_987/Mul/y", "op": "Const", "attr": {"value": {"tensor": {"dtype": "DT_FLOAT", "tensorShape": {}}}, "dtype": {"type": "DT_FLOAT"}}}, {"name": "model_442/tf.math.subtract_172/Sub/y", "op": "Const", "attr": {"value": {"tensor": {"dtype": "DT_FLOAT", "tensorShape": {}}}, "dtype": {"type": "DT_FLOAT"}}}, {"name": "model_442/tf.compat.v1.gather_16/GatherV2/indices", "op": "Const", "attr": {"value": {"tensor": {"dtype": "DT_INT32", "tensorShape": {}}}, "dtype": {"type": "DT_INT32"}}}, {"name": "model_442/tf.compat.v1.gather_16/GatherV2/axis", "op": "Const", "attr": {"value": {"tensor": {"dtype": "DT_INT32", "tensorShape": {}}}, "dtype": {"type": "DT_INT32"}}}, {"name": "model_442/tf.compat.v1.transpose_1119/transpose/perm", "op": "Const", "attr": {"value": {"tensor": {"dtype": "DT_INT32", "tensorShape": {"dim": [{"size": "5"}]}}}, "dtype": {"type": "DT_INT32"}}}, {"name": "model_442/tf.reshape_718/Reshape/shape", "op": "Const", "attr": {"value": {"tensor": {"dtype": "DT_INT32", "tensorShape": {"dim": [{"size": "4"}]}}}, "dtype": {"type": "DT_INT32"}}}, {"name": "model_442/tf.math.add_420/Add/y", "op": "Const", "attr": {"value": {"tensor": {"dtype": "DT_FLOAT", "tensorShape": {}}}, "dtype": {"type": "DT_FLOAT"}}}, {"name": "model_442/tf.math.multiply_1059/Mul/y", "op": "Const", "attr": {"value": {"tensor": {"dtype": "DT_FLOAT", "tensorShape": {}}}, "dtype": {"type": "DT_FLOAT"}}}, {"name": "model_442/tf.math.subtract_207/Sub/y", "op": "Const", "attr": {"value": {"tensor": {"dtype": "DT_FLOAT", "tensorShape": {}}}, "dtype": {"type": "DT_FLOAT"}}}, {"name": "model_442/tf.math.multiply_1060/Mul/y", "op": "Const", "attr": {"value": {"tensor": {"dtype": "DT_FLOAT", "tensorShape": {}}}, "dtype": {"type": "DT_FLOAT"}}}, {"name": "model_442/tf.reshape_752/Reshape/shape", "op": "Const", "attr": {"value": {"tensor": {"dtype": "DT_INT32", "tensorShape": {"dim": [{"size": "2"}]}}}, "dtype": {"type": "DT_INT32"}}}, {"name": "model_442/tf.expand_dims_294/ExpandDims/dim", "op": "Const", "attr": {"value": {"tensor": {"dtype": "DT_INT32", "tensorShape": {}}}, "dtype": {"type": "DT_INT32"}}}, {"name": "model_442/tf.reshape_766/Reshape/shape", "op": "Const", "attr": {"value": {"tensor": {"dtype": "DT_INT32", "tensorShape": {"dim": [{"size": "4"}]}}}, "dtype": {"type": "DT_INT32"}}}, {"name": "model_442/tf.compat.v1.transpose_1176/transpose/perm", "op": "Const", "attr": {"value": {"tensor": {"dtype": "DT_INT32", "tensorShape": {"dim": [{"size": "4"}]}}}, "dtype": {"type": "DT_INT32"}}}, {"name": "model_442/tf.expand_dims_314/ExpandDims/dim", "op": "Const", "attr": {"value": {"tensor": {"dtype": "DT_INT32", "tensorShape": {}}}, "dtype": {"type": "DT_INT32"}}}, {"name": "model_442/tf.concat_156/concat/axis", "op": "Const", "attr": {"value": {"tensor": {"dtype": "DT_INT32", "tensorShape": {}}}, "dtype": {"type": "DT_INT32"}}}, {"name": "model_442/tf.compat.v1.transpose_1179/transpose/perm", "op": "Const", "attr": {"value": {"tensor": {"dtype": "DT_INT32", "tensorShape": {"dim": [{"size": "5"}]}}}, "dtype": {"type": "DT_INT32"}}}, {"name": "model_442/tf.reshape_769/Reshape/shape", "op": "Const", "attr": {"value": {"tensor": {"dtype": "DT_INT32", "tensorShape": {"dim": [{"size": "4"}]}}}, "dtype": {"type": "DT_INT32"}}}, {"name": "model_442/layer_normalization_15/batchnorm/ReadVariableOp", "op": "Const", "attr": {"value": {"tensor": {"dtype": "DT_FLOAT", "tensorShape": {"dim": [{"size": "256"}]}}}, "dtype": {"type": "DT_FLOAT"}}}, {"name": "model_442/tf.linalg.matmul_96/MatMul/b", "op": "Const", "attr": {"value": {"tensor": {"dtype": "DT_FLOAT", "tensorShape": {"dim": [{"size": "256"}, {"size": "256"}]}}}, "dtype": {"type": "DT_FLOAT"}}}, {"name": "model_442/tf.__operators__.add_162/AddV2/y", "op": "Const", "attr": {"value": {"tensor": {"dtype": "DT_FLOAT", "tensorShape": {"dim": [{"size": "256"}]}}}, "dtype": {"type": "DT_FLOAT"}}}, {"name": "model_442/tf.reshape_693/Reshape/shape", "op": "Const", "attr": {"value": {"tensor": {"dtype": "DT_INT32", "tensorShape": {"dim": [{"size": "3"}]}}}, "dtype": {"type": "DT_INT32"}}}, {"name": "model_442/tf.compat.v1.transpose_1090/transpose/perm", "op": "Const", "attr": {"value": {"tensor": {"dtype": "DT_INT32", "tensorShape": {"dim": [{"size": "3"}]}}}, "dtype": {"type": "DT_INT32"}}}, {"name": "model_442/tf.math.multiply_969/Mul/y", "op": "Const", "attr": {"value": {"tensor": {"dtype": "DT_FLOAT", "tensorShape": {}}}, "dtype": {"type": "DT_FLOAT"}}}, {"name": "model_442/tf.compat.v1.transpose_1081/transpose/perm", "op": "Const", "attr": {"value": {"tensor": {"dtype": "DT_INT32", "tensorShape": {"dim": [{"size": "3"}]}}}, "dtype": {"type": "DT_INT32"}}}, {"name": "model_442/tf.reshape_692/Reshape/shape", "op": "Const", "attr": {"value": {"tensor": {"dtype": "DT_INT32", "tensorShape": {"dim": [{"size": "2"}]}}}, "dtype": {"type": "DT_INT32"}}}, {"name": "model_442/tf.linalg.matmul_97/MatMul/b", "op": "Const", "attr": {"value": {"tensor": {"dtype": "DT_FLOAT", "tensorShape": {"dim": [{"size": "256"}, {"size": "256"}]}}}, "dtype": {"type": "DT_FLOAT"}}}, {"name": "model_442/tf.__operators__.add_163/AddV2/y", "op": "Const", "attr": {"value": {"tensor": {"dtype": "DT_FLOAT", "tensorShape": {"dim": [{"size": "256"}]}}}, "dtype": {"type": "DT_FLOAT"}}}, {"name": "model_442/tf.reshape_694/Reshape/shape", "op": "Const", "attr": {"value": {"tensor": {"dtype": "DT_INT32", "tensorShape": {"dim": [{"size": "3"}]}}}, "dtype": {"type": "DT_INT32"}}}, {"name": "model_442/tf.compat.v1.transpose_1091/transpose/perm", "op": "Const", "attr": {"value": {"tensor": {"dtype": "DT_INT32", "tensorShape": {"dim": [{"size": "3"}]}}}, "dtype": {"type": "DT_INT32"}}}, {"name": "model_442/tf.compat.v1.transpose_1043/transpose/perm", "op": "Const", "attr": {"value": {"tensor": {"dtype": "DT_INT32", "tensorShape": {"dim": [{"size": "3"}]}}}, "dtype": {"type": "DT_INT32"}}}, {"name": "model_442/tf.reshape_670/Reshape/shape", "op": "Const", "attr": {"value": {"tensor": {"dtype": "DT_INT32", "tensorShape": {"dim": [{"size": "2"}]}}}, "dtype": {"type": "DT_INT32"}}}, {"name": "model_442/tf.linalg.matmul_91/MatMul/b", "op": "Const", "attr": {"value": {"tensor": {"dtype": "DT_FLOAT", "tensorShape": {"dim": [{"size": "256"}, {"size": "256"}]}}}, "dtype": {"type": "DT_FLOAT"}}}, {"name": "model_442/tf.__operators__.add_157/AddV2/y", "op": "Const", "attr": {"value": {"tensor": {"dtype": "DT_FLOAT", "tensorShape": {"dim": [{"size": "256"}]}}}, "dtype": {"type": "DT_FLOAT"}}}, {"name": "model_442/tf.reshape_672/Reshape/shape", "op": "Const", "attr": {"value": {"tensor": {"dtype": "DT_INT32", "tensorShape": {"dim": [{"size": "3"}]}}}, "dtype": {"type": "DT_INT32"}}}, {"name": "model_442/tf.compat.v1.transpose_1056/transpose/perm", "op": "Const", "attr": {"value": {"tensor": {"dtype": "DT_INT32", "tensorShape": {"dim": [{"size": "3"}]}}}, "dtype": {"type": "DT_INT32"}}}, {"name": "model_442/tf.compat.v1.transpose_1092/transpose/perm", "op": "Const", "attr": {"value": {"tensor": {"dtype": "DT_INT32", "tensorShape": {"dim": [{"size": "3"}]}}}, "dtype": {"type": "DT_INT32"}}}, {"name": "model_442/tf.reshape_697/Reshape/shape", "op": "Const", "attr": {"value": {"tensor": {"dtype": "DT_INT32", "tensorShape": {"dim": [{"size": "2"}]}}}, "dtype": {"type": "DT_INT32"}}}, {"name": "model_442/tf.linalg.matmul_102/MatMul/b", "op": "Const", "attr": {"value": {"tensor": {"dtype": "DT_FLOAT", "tensorShape": {"dim": [{"size": "256"}, {"size": "256"}]}}}, "dtype": {"type": "DT_FLOAT"}}}, {"name": "model_442/tf.__operators__.add_164/AddV2/y", "op": "Const", "attr": {"value": {"tensor": {"dtype": "DT_FLOAT", "tensorShape": {"dim": [{"size": "256"}]}}}, "dtype": {"type": "DT_FLOAT"}}}, {"name": "model_442/tf.reshape_698/Reshape/shape", "op": "Const", "attr": {"value": {"tensor": {"dtype": "DT_INT32", "tensorShape": {"dim": [{"size": "3"}]}}}, "dtype": {"type": "DT_INT32"}}}, {"name": "model_442/tf.compat.v1.transpose_1099/transpose/perm", "op": "Const", "attr": {"value": {"tensor": {"dtype": "DT_INT32", "tensorShape": {"dim": [{"size": "3"}]}}}, "dtype": {"type": "DT_INT32"}}}, {"name": "model_442/layer_normalization_15/moments/mean/reduction_indices", "op": "Const", "attr": {"value": {"tensor": {"dtype": "DT_INT32", "tensorShape": {"dim": [{"size": "1"}]}}}, "dtype": {"type": "DT_INT32"}}}, {"name": "model_442/layer_normalization_15/moments/variance/reduction_indices", "op": "Const", "attr": {"value": {"tensor": {"dtype": "DT_INT32", "tensorShape": {"dim": [{"size": "1"}]}}}, "dtype": {"type": "DT_INT32"}}}, {"name": "model_442/layer_normalization_15/batchnorm/add/y", "op": "Const", "attr": {"value": {"tensor": {"dtype": "DT_FLOAT", "tensorShape": {}}}, "dtype": {"type": "DT_FLOAT"}}}, {"name": "model_442/layer_normalization_15/batchnorm/mul/ReadVariableOp", "op": "Const", "attr": {"value": {"tensor": {"dtype": "DT_FLOAT", "tensorShape": {"dim": [{"size": "256"}]}}}, "dtype": {"type": "DT_FLOAT"}}}, {"name": "model_442/tf.reshape_684/Reshape/shape", "op": "Const", "attr": {"value": {"tensor": {"dtype": "DT_INT32", "tensorShape": {"dim": [{"size": "2"}]}}}, "dtype": {"type": "DT_INT32"}}}, {"name": "model_442/tf.linalg.matmul_94/MatMul/b", "op": "Const", "attr": {"value": {"tensor": {"dtype": "DT_FLOAT", "tensorShape": {"dim": [{"size": "4"}, {"size": "512"}]}}}, "dtype": {"type": "DT_FLOAT"}}}, {"name": "model_442/tf.__operators__.add_160/AddV2/y", "op": "Const", "attr": {"value": {"tensor": {"dtype": "DT_FLOAT", "tensorShape": {"dim": [{"size": "512"}]}}}, "dtype": {"type": "DT_FLOAT"}}}, {"name": "model_442/tf.linalg.matmul_95/MatMul/b", "op": "Const", "attr": {"value": {"tensor": {"dtype": "DT_FLOAT", "tensorShape": {"dim": [{"size": "512"}, {"size": "256"}]}}}, "dtype": {"type": "DT_FLOAT"}}}, {"name": "model_442/tf.__operators__.add_161/AddV2/y", "op": "Const", "attr": {"value": {"tensor": {"dtype": "DT_FLOAT", "tensorShape": {"dim": [{"size": "256"}]}}}, "dtype": {"type": "DT_FLOAT"}}}, {"name": "model_442/tf.reshape_689/Reshape/shape", "op": "Const", "attr": {"value": {"tensor": {"dtype": "DT_INT32", "tensorShape": {"dim": [{"size": "3"}]}}}, "dtype": {"type": "DT_INT32"}}}, {"name": "model_442/tf.reshape_701/Reshape/shape", "op": "Const", "attr": {"value": {"tensor": {"dtype": "DT_INT32", "tensorShape": {"dim": [{"size": "2"}]}}}, "dtype": {"type": "DT_INT32"}}}, {"name": "model_442/tf.linalg.matmul_103/MatMul/b", "op": "Const", "attr": {"value": {"tensor": {"dtype": "DT_FLOAT", "tensorShape": {"dim": [{"size": "256"}, {"size": "96"}]}}}, "dtype": {"type": "DT_FLOAT"}}}, {"name": "model_442/tf.__operators__.add_165/AddV2/y", "op": "Const", "attr": {"value": {"tensor": {"dtype": "DT_FLOAT", "tensorShape": {"dim": [{"size": "96"}]}}}, "dtype": {"type": "DT_FLOAT"}}}, {"name": "model_442/tf.reshape_702/Reshape/shape", "op": "Const", "attr": {"value": {"tensor": {"dtype": "DT_INT32", "tensorShape": {"dim": [{"size": "4"}]}}}, "dtype": {"type": "DT_INT32"}}}, {"name": "model_442/tf.reshape_706/Reshape/shape", "op": "Const", "attr": {"value": {"tensor": {"dtype": "DT_INT32", "tensorShape": {"dim": [{"size": "5"}]}}}, "dtype": {"type": "DT_INT32"}}}, {"name": "model_442/tf.compat.v1.transpose_1112/transpose/perm", "op": "Const", "attr": {"value": {"tensor": {"dtype": "DT_INT32", "tensorShape": {"dim": [{"size": "5"}]}}}, "dtype": {"type": "DT_INT32"}}}, {"name": "model_442/tf.reshape_709/Reshape/shape", "op": "Const", "attr": {"value": {"tensor": {"dtype": "DT_INT32", "tensorShape": {"dim": [{"size": "4"}]}}}, "dtype": {"type": "DT_INT32"}}}, {"name": "model_442/tf.math.reduce_sum_9/Sum/reduction_indices", "op": "Const", "attr": {"value": {"tensor": {"dtype": "DT_INT32", "tensorShape": {"dim": [{"size": "1"}]}}}, "dtype": {"type": "DT_INT32"}}}, {"name": "model_442/tf.reshape_772/Reshape/shape", "op": "Const", "attr": {"value": {"tensor": {"dtype": "DT_INT32", "tensorShape": {"dim": [{"size": "3"}]}}}, "dtype": {"type": "DT_INT32"}}}, {"name": "model_442/tf.compat.v1.transpose_1186/transpose/perm", "op": "Const", "attr": {"value": {"tensor": {"dtype": "DT_INT32", "tensorShape": {"dim": [{"size": "3"}]}}}, "dtype": {"type": "DT_INT32"}}}, {"name": "model_442/tf.reshape_775/Reshape/shape", "op": "Const", "attr": {"value": {"tensor": {"dtype": "DT_INT32", "tensorShape": {"dim": [{"size": "2"}]}}}, "dtype": {"type": "DT_INT32"}}}, {"name": "model_442/tf.linalg.matmul_105/MatMul/b", "op": "Const", "attr": {"value": {"tensor": {"dtype": "DT_FLOAT", "tensorShape": {"dim": [{"size": "256"}, {"size": "256"}]}}}, "dtype": {"type": "DT_FLOAT"}}}, {"name": "model_442/tf.__operators__.add_188/AddV2/y", "op": "Const", "attr": {"value": {"tensor": {"dtype": "DT_FLOAT", "tensorShape": {"dim": [{"size": "256"}]}}}, "dtype": {"type": "DT_FLOAT"}}}, {"name": "model_442/tf.reshape_776/Reshape/shape", "op": "Const", "attr": {"value": {"tensor": {"dtype": "DT_INT32", "tensorShape": {"dim": [{"size": "3"}]}}}, "dtype": {"type": "DT_INT32"}}}, {"name": "model_442/layer_normalization_16/moments/mean/reduction_indices", "op": "Const", "attr": {"value": {"tensor": {"dtype": "DT_INT32", "tensorShape": {"dim": [{"size": "1"}]}}}, "dtype": {"type": "DT_INT32"}}}, {"name": "model_442/layer_normalization_16/moments/variance/reduction_indices", "op": "Const", "attr": {"value": {"tensor": {"dtype": "DT_INT32", "tensorShape": {"dim": [{"size": "1"}]}}}, "dtype": {"type": "DT_INT32"}}}, {"name": "model_442/layer_normalization_16/batchnorm/add/y", "op": "Const", "attr": {"value": {"tensor": {"dtype": "DT_FLOAT", "tensorShape": {}}}, "dtype": {"type": "DT_FLOAT"}}}, {"name": "model_442/layer_normalization_16/batchnorm/mul/ReadVariableOp", "op": "Const", "attr": {"value": {"tensor": {"dtype": "DT_FLOAT", "tensorShape": {"dim": [{"size": "256"}]}}}, "dtype": {"type": "DT_FLOAT"}}}, {"name": "model_442/tf.reshape_779/Reshape/shape", "op": "Const", "attr": {"value": {"tensor": {"dtype": "DT_INT32", "tensorShape": {"dim": [{"size": "2"}]}}}, "dtype": {"type": "DT_INT32"}}}, {"name": "model_442/tf.linalg.matmul_106/MatMul/b", "op": "Const", "attr": {"value": {"tensor": {"dtype": "DT_FLOAT", "tensorShape": {"dim": [{"size": "256"}, {"size": "1024"}]}}}, "dtype": {"type": "DT_FLOAT"}}}, {"name": "model_442/tf.__operators__.add_189/AddV2/y", "op": "Const", "attr": {"value": {"tensor": {"dtype": "DT_FLOAT", "tensorShape": {"dim": [{"size": "1024"}]}}}, "dtype": {"type": "DT_FLOAT"}}}, {"name": "model_442/tf.linalg.matmul_107/MatMul/b", "op": "Const", "attr": {"value": {"tensor": {"dtype": "DT_FLOAT", "tensorShape": {"dim": [{"size": "1024"}, {"size": "256"}]}}}, "dtype": {"type": "DT_FLOAT"}}}, {"name": "model_442/tf.__operators__.add_190/AddV2/y", "op": "Const", "attr": {"value": {"tensor": {"dtype": "DT_FLOAT", "tensorShape": {"dim": [{"size": "256"}]}}}, "dtype": {"type": "DT_FLOAT"}}}, {"name": "model_442/tf.reshape_784/Reshape/shape", "op": "Const", "attr": {"value": {"tensor": {"dtype": "DT_INT32", "tensorShape": {"dim": [{"size": "3"}]}}}, "dtype": {"type": "DT_INT32"}}}, {"name": "model_442/layer_normalization_17/moments/mean/reduction_indices", "op": "Const", "attr": {"value": {"tensor": {"dtype": "DT_INT32", "tensorShape": {"dim": [{"size": "1"}]}}}, "dtype": {"type": "DT_INT32"}}}, {"name": "model_442/layer_normalization_17/moments/variance/reduction_indices", "op": "Const", "attr": {"value": {"tensor": {"dtype": "DT_INT32", "tensorShape": {"dim": [{"size": "1"}]}}}, "dtype": {"type": "DT_INT32"}}}, {"name": "model_442/layer_normalization_17/batchnorm/add/y", "op": "Const", "attr": {"value": {"tensor": {"dtype": "DT_FLOAT", "tensorShape": {}}}, "dtype": {"type": "DT_FLOAT"}}}, {"name": "model_442/layer_normalization_17/batchnorm/mul/ReadVariableOp", "op": "Const", "attr": {"value": {"tensor": {"dtype": "DT_FLOAT", "tensorShape": {"dim": [{"size": "256"}]}}}, "dtype": {"type": "DT_FLOAT"}}}, {"name": "model_442/tf.reshape_787/Reshape/shape", "op": "Const", "attr": {"value": {"tensor": {"dtype": "DT_INT32", "tensorShape": {"dim": [{"size": "2"}]}}}, "dtype": {"type": "DT_INT32"}}}, {"name": "model_442/tf.linalg.matmul_108/MatMul/b", "op": "Const", "attr": {"value": {"tensor": {"dtype": "DT_FLOAT", "tensorShape": {"dim": [{"size": "256"}, {"size": "256"}]}}}, "dtype": {"type": "DT_FLOAT"}}}, {"name": "model_442/tf.__operators__.add_191/AddV2/y", "op": "Const", "attr": {"value": {"tensor": {"dtype": "DT_FLOAT", "tensorShape": {"dim": [{"size": "256"}]}}}, "dtype": {"type": "DT_FLOAT"}}}, {"name": "model_442/tf.linalg.matmul_110/MatMul/b", "op": "Const", "attr": {"value": {"tensor": {"dtype": "DT_FLOAT", "tensorShape": {"dim": [{"size": "256"}, {"size": "256"}]}}}, "dtype": {"type": "DT_FLOAT"}}}, {"name": "model_442/tf.__operators__.add_193/AddV2/y", "op": "Const", "attr": {"value": {"tensor": {"dtype": "DT_FLOAT", "tensorShape": {"dim": [{"size": "256"}]}}}, "dtype": {"type": "DT_FLOAT"}}}, {"name": "model_442/tf.linalg.matmul_111/MatMul/b", "op": "Const", "attr": {"value": {"tensor": {"dtype": "DT_FLOAT", "tensorShape": {"dim": [{"size": "256"}, {"size": "4"}]}}}, "dtype": {"type": "DT_FLOAT"}}}, {"name": "model_442/tf.__operators__.add_194/AddV2/y", "op": "Const", "attr": {"value": {"tensor": {"dtype": "DT_FLOAT", "tensorShape": {"dim": [{"size": "4"}]}}}, "dtype": {"type": "DT_FLOAT"}}}, {"name": "model_442/tf.reshape_800/Reshape/shape", "op": "Const", "attr": {"value": {"tensor": {"dtype": "DT_INT32", "tensorShape": {"dim": [{"size": "3"}]}}}, "dtype": {"type": "DT_INT32"}}}, {"name": "model_442/tf.math.maximum_8/Maximum/y", "op": "Const", "attr": {"value": {"tensor": {"dtype": "DT_FLOAT", "tensorShape": {}}}, "dtype": {"type": "DT_FLOAT"}}}, {"name": "model_442/940876", "op": "Const", "attr": {"value": {"tensor": {"dtype": "DT_FLOAT", "tensorShape": {}}}, "dtype": {"type": "DT_FLOAT"}}}, {"name": "model_442/layer_normalization_14/batchnorm/ReadVariableOp", "op": "Const", "attr": {"value": {"tensor": {"dtype": "DT_FLOAT", "tensorShape": {"dim": [{"size": "256"}]}}}, "dtype": {"type": "DT_FLOAT"}}}, {"name": "model_442/layer_normalization_13/batchnorm/ReadVariableOp", "op": "Const", "attr": {"value": {"tensor": {"dtype": "DT_FLOAT", "tensorShape": {"dim": [{"size": "256"}]}}}, "dtype": {"type": "DT_FLOAT"}}}, {"name": "model_442/tf.expand_dims_194/ExpandDims/dim", "op": "Const", "attr": {"value": {"tensor": {"dtype": "DT_INT32", "tensorShape": {}}}, "dtype": {"type": "DT_INT32"}}}, {"name": "model_442/tf.math.multiply_874/Mul/y", "op": "Const", "attr": {"value": {"tensor": {"dtype": "DT_INT64", "tensorShape": {"dim": [{"size": "1"}, {"size": "32"}, {"size": "1"}]}}}, "dtype": {"type": "DT_INT64"}}}, {"name": "model_442/tf.tensor_scatter_nd_update_39/TensorScatterUpdate", "op": "Const", "attr": {"value": {"tensor": {"dtype": "DT_INT32", "tensorShape": {"dim": [{"size": "3"}]}}}, "dtype": {"type": "DT_INT32"}}}, {"name": "model_442/tf.expand_dims_206/ExpandDims/dim", "op": "Const", "attr": {"value": {"tensor": {"dtype": "DT_INT32", "tensorShape": {}}}, "dtype": {"type": "DT_INT32"}}}, {"name": "ConstantFolding/model_442/tf.concat_114/concat_partial_split_1", "op": "Const", "attr": {"value": {"tensor": {"dtype": "DT_INT64", "tensorShape": {"dim": [{"size": "1200"}, {"size": "32"}, {"size": "8"}, {"size": "2"}]}}}, "dtype": {"type": "DT_INT64"}}}, {"name": "model_442/tf.concat_114/concat/axis", "op": "Const", "attr": {"value": {"tensor": {"dtype": "DT_INT32", "tensorShape": {}}}, "dtype": {"type": "DT_INT32"}}}, {"name": "model_442/tf.compat.v1.transpose_983/transpose/perm", "op": "Const", "attr": {"value": {"tensor": {"dtype": "DT_INT32", "tensorShape": {"dim": [{"size": "3"}]}}}, "dtype": {"type": "DT_INT32"}}}, {"name": "model_442/tf.expand_dims_189/ExpandDims/dim", "op": "Const", "attr": {"value": {"tensor": {"dtype": "DT_INT32", "tensorShape": {}}}, "dtype": {"type": "DT_INT32"}}}, {"name": "model_442/tf.math.greater_57/Greater/y", "op": "Const", "attr": {"value": {"tensor": {"dtype": "DT_INT64", "tensorShape": {}}}, "dtype": {"type": "DT_INT64"}}}, {"name": "model_442/tf.where_85/SelectV2/t", "op": "Const", "attr": {"value": {"tensor": {"dtype": "DT_INT64", "tensorShape": {}}}, "dtype": {"type": "DT_INT64"}}}, {"name": "model_442/tf.math.less_59/Less/y", "op": "Const", "attr": {"value": {"tensor": {"dtype": "DT_INT64", "tensorShape": {}}}, "dtype": {"type": "DT_INT64"}}}, {"name": "model_442/tf.where_84/SelectV2/t", "op": "Const", "attr": {"value": {"tensor": {"dtype": "DT_INT64", "tensorShape": {}}}, "dtype": {"type": "DT_INT64"}}}, {"name": "model_442/tf.expand_dims_196/ExpandDims/dim", "op": "Const", "attr": {"value": {"tensor": {"dtype": "DT_INT32", "tensorShape": {}}}, "dtype": {"type": "DT_INT32"}}}, {"name": "model_442/tf.math.multiply_876/Mul/y", "op": "Const", "attr": {"value": {"tensor": {"dtype": "DT_INT64", "tensorShape": {"dim": [{"size": "1"}, {"size": "32"}, {"size": "1"}]}}}, "dtype": {"type": "DT_INT64"}}}, {"name": "model_442/tf.tensor_scatter_nd_update_38/TensorScatterUpdate", "op": "Const", "attr": {"value": {"tensor": {"dtype": "DT_INT32", "tensorShape": {"dim": [{"size": "3"}]}}}, "dtype": {"type": "DT_INT32"}}}, {"name": "model_442/tf.expand_dims_203/ExpandDims/dim", "op": "Const", "attr": {"value": {"tensor": {"dtype": "DT_INT32", "tensorShape": {}}}, "dtype": {"type": "DT_INT32"}}}, {"name": "ConstantFolding/model_442/tf.concat_113/concat_partial_split_1", "op": "Const", "attr": {"value": {"tensor": {"dtype": "DT_INT64", "tensorShape": {"dim": [{"size": "1200"}, {"size": "32"}, {"size": "8"}, {"size": "2"}]}}}, "dtype": {"type": "DT_INT64"}}}, {"name": "model_442/tf.concat_113/concat/axis", "op": "Const", "attr": {"value": {"tensor": {"dtype": "DT_INT32", "tensorShape": {}}}, "dtype": {"type": "DT_INT32"}}}, {"name": "model_442/tf.compat.v1.transpose_980/transpose/perm", "op": "Const", "attr": {"value": {"tensor": {"dtype": "DT_INT32", "tensorShape": {"dim": [{"size": "3"}]}}}, "dtype": {"type": "DT_INT32"}}}, {"name": "model_442/tf.expand_dims_190/ExpandDims/dim", "op": "Const", "attr": {"value": {"tensor": {"dtype": "DT_INT32", "tensorShape": {}}}, "dtype": {"type": "DT_INT32"}}}, {"name": "model_442/tf.math.greater_59/Greater/y", "op": "Const", "attr": {"value": {"tensor": {"dtype": "DT_INT64", "tensorShape": {}}}, "dtype": {"type": "DT_INT64"}}}, {"name": "model_442/tf.where_89/SelectV2/t", "op": "Const", "attr": {"value": {"tensor": {"dtype": "DT_INT64", "tensorShape": {}}}, "dtype": {"type": "DT_INT64"}}}, {"name": "model_442/tf.math.less_61/Less/y", "op": "Const", "attr": {"value": {"tensor": {"dtype": "DT_INT64", "tensorShape": {}}}, "dtype": {"type": "DT_INT64"}}}, {"name": "model_442/tf.where_88/SelectV2/t", "op": "Const", "attr": {"value": {"tensor": {"dtype": "DT_INT64", "tensorShape": {}}}, "dtype": {"type": "DT_INT64"}}}, {"name": "model_442/tf.math.multiply_872/Mul/y", "op": "Const", "attr": {"value": {"tensor": {"dtype": "DT_INT64", "tensorShape": {}}}, "dtype": {"type": "DT_INT64"}}}, {"name": "model_442/tf.expand_dims_193/ExpandDims/dim", "op": "Const", "attr": {"value": {"tensor": {"dtype": "DT_INT32", "tensorShape": {}}}, "dtype": {"type": "DT_INT32"}}}, {"name": "model_442/tf.math.multiply_873/Mul/y", "op": "Const", "attr": {"value": {"tensor": {"dtype": "DT_INT64", "tensorShape": {"dim": [{"size": "1"}, {"size": "32"}, {"size": "1"}]}}}, "dtype": {"type": "DT_INT64"}}}, {"name": "model_442/tf.tensor_scatter_nd_update_37/TensorScatterUpdate", "op": "Const", "attr": {"value": {"tensor": {"dtype": "DT_INT32", "tensorShape": {"dim": [{"size": "3"}]}}}, "dtype": {"type": "DT_INT32"}}}, {"name": "model_442/tf.expand_dims_200/ExpandDims/dim", "op": "Const", "attr": {"value": {"tensor": {"dtype": "DT_INT32", "tensorShape": {}}}, "dtype": {"type": "DT_INT32"}}}, {"name": "ConstantFolding/model_442/tf.concat_112/concat_partial_split_1", "op": "Const", "attr": {"value": {"tensor": {"dtype": "DT_INT64", "tensorShape": {"dim": [{"size": "1200"}, {"size": "32"}, {"size": "8"}, {"size": "2"}]}}}, "dtype": {"type": "DT_INT64"}}}, {"name": "model_442/tf.concat_112/concat/axis", "op": "Const", "attr": {"value": {"tensor": {"dtype": "DT_INT32", "tensorShape": {}}}, "dtype": {"type": "DT_INT32"}}}, {"name": "model_442/tf.compat.v1.transpose_977/transpose/perm", "op": "Const", "attr": {"value": {"tensor": {"dtype": "DT_INT32", "tensorShape": {"dim": [{"size": "3"}]}}}, "dtype": {"type": "DT_INT32"}}}, {"name": "model_442/tf.expand_dims_192/ExpandDims/dim", "op": "Const", "attr": {"value": {"tensor": {"dtype": "DT_INT32", "tensorShape": {}}}, "dtype": {"type": "DT_INT32"}}}, {"name": "model_442/tf.strided_slice_27/ones_like/tensor", "op": "Const", "attr": {"value": {"tensor": {"dtype": "DT_INT64", "tensorShape": {"dim": [{"size": "4"}]}}}, "dtype": {"type": "DT_INT64"}}}, {"name": "model_442/tf.strided_slice_27/StridedSlice/end", "op": "Const", "attr": {"value": {"tensor": {"dtype": "DT_INT64", "tensorShape": {"dim": [{"size": "4"}]}}}, "dtype": {"type": "DT_INT64"}}}, {"name": "model_442/tf.strided_slice_27/ones_like", "op": "Const", "attr": {"value": {"tensor": {"dtype": "DT_INT64", "tensorShape": {"dim": [{"size": "4"}]}}}, "dtype": {"type": "DT_INT64"}}}, {"name": "model_442/tf.reshape_99/Reshape/shape", "op": "Const", "attr": {"value": {"tensor": {"dtype": "DT_INT32", "tensorShape": {"dim": [{"size": "3"}]}}}, "dtype": {"type": "DT_INT32"}}}, {"name": "model_442/tf.compat.v1.transpose_308/transpose/perm", "op": "Const", "attr": {"value": {"tensor": {"dtype": "DT_INT32", "tensorShape": {"dim": [{"size": "3"}]}}}, "dtype": {"type": "DT_INT32"}}}, {"name": "model_442/tf.reshape_157/Reshape/shape", "op": "Const", "attr": {"value": {"tensor": {"dtype": "DT_INT32", "tensorShape": {"dim": [{"size": "4"}]}}}, "dtype": {"type": "DT_INT32"}}}, {"name": "model_442/tf.compat.v1.transpose_970/transpose/perm", "op": "Const", "attr": {"value": {"tensor": {"dtype": "DT_INT32", "tensorShape": {"dim": [{"size": "4"}]}}}, "dtype": {"type": "DT_INT32"}}}, {"name": "model_442/tf.compat.v1.pad_26/Pad/paddings", "op": "Const", "attr": {"value": {"tensor": {"dtype": "DT_INT32", "tensorShape": {"dim": [{"size": "4"}, {"size": "2"}]}}}, "dtype": {"type": "DT_INT32"}}}, {"name": "model_442/tf.reshape_601/Reshape/shape", "op": "Const", "attr": {"value": {"tensor": {"dtype": "DT_INT32", "tensorShape": {"dim": [{"size": "3"}]}}}, "dtype": {"type": "DT_INT32"}}}, {"name": "model_442/tf.compat.v1.transpose_971/transpose/perm", "op": "Const", "attr": {"value": {"tensor": {"dtype": "DT_INT32", "tensorShape": {"dim": [{"size": "3"}]}}}, "dtype": {"type": "DT_INT32"}}}, {"name": "model_442/tf.math.greater_56/Greater/y", "op": "Const", "attr": {"value": {"tensor": {"dtype": "DT_INT64", "tensorShape": {}}}, "dtype": {"type": "DT_INT64"}}}, {"name": "model_442/tf.where_83/SelectV2/t", "op": "Const", "attr": {"value": {"tensor": {"dtype": "DT_INT64", "tensorShape": {}}}, "dtype": {"type": "DT_INT64"}}}, {"name": "model_442/tf.math.less_58/Less/y", "op": "Const", "attr": {"value": {"tensor": {"dtype": "DT_INT64", "tensorShape": {}}}, "dtype": {"type": "DT_INT64"}}}, {"name": "model_442/tf.where_82/SelectV2/t", "op": "Const", "attr": {"value": {"tensor": {"dtype": "DT_INT64", "tensorShape": {}}}, "dtype": {"type": "DT_INT64"}}}, {"name": "model_442/tf.math.add_349/Add/y", "op": "Const", "attr": {"value": {"tensor": {"dtype": "DT_FLOAT", "tensorShape": {}}}, "dtype": {"type": "DT_FLOAT"}}}, {"name": "model_442/tf.math.add_351/Add/y", "op": "Const", "attr": {"value": {"tensor": {"dtype": "DT_FLOAT", "tensorShape": {}}}, "dtype": {"type": "DT_FLOAT"}}}, {"name": "model_442/tf.math.greater_58/Greater/y", "op": "Const", "attr": {"value": {"tensor": {"dtype": "DT_INT64", "tensorShape": {}}}, "dtype": {"type": "DT_INT64"}}}, {"name": "model_442/tf.where_87/SelectV2/t", "op": "Const", "attr": {"value": {"tensor": {"dtype": "DT_INT64", "tensorShape": {}}}, "dtype": {"type": "DT_INT64"}}}, {"name": "model_442/tf.math.less_60/Less/y", "op": "Const", "attr": {"value": {"tensor": {"dtype": "DT_INT64", "tensorShape": {}}}, "dtype": {"type": "DT_INT64"}}}, {"name": "model_442/tf.where_86/SelectV2/t", "op": "Const", "attr": {"value": {"tensor": {"dtype": "DT_INT64", "tensorShape": {}}}, "dtype": {"type": "DT_INT64"}}}, {"name": "model_442/tf.math.add_350/Add/y", "op": "Const", "attr": {"value": {"tensor": {"dtype": "DT_FLOAT", "tensorShape": {}}}, "dtype": {"type": "DT_FLOAT"}}}, {"name": "model_442/tf.math.add_352/Add/y", "op": "Const", "attr": {"value": {"tensor": {"dtype": "DT_FLOAT", "tensorShape": {}}}, "dtype": {"type": "DT_FLOAT"}}}, {"name": "model_442/tf.math.multiply_871/Mul/y", "op": "Const", "attr": {"value": {"tensor": {"dtype": "DT_INT64", "tensorShape": {}}}, "dtype": {"type": "DT_INT64"}}}, {"name": "model_442/tf.expand_dims_195/ExpandDims/dim", "op": "Const", "attr": {"value": {"tensor": {"dtype": "DT_INT32", "tensorShape": {}}}, "dtype": {"type": "DT_INT32"}}}, {"name": "model_442/tf.math.multiply_875/Mul/y", "op": "Const", "attr": {"value": {"tensor": {"dtype": "DT_INT64", "tensorShape": {"dim": [{"size": "1"}, {"size": "32"}, {"size": "1"}]}}}, "dtype": {"type": "DT_INT64"}}}, {"name": "model_442/tf.tensor_scatter_nd_update_36/TensorScatterUpdate", "op": "Const", "attr": {"value": {"tensor": {"dtype": "DT_INT32", "tensorShape": {"dim": [{"size": "3"}]}}}, "dtype": {"type": "DT_INT32"}}}, {"name": "model_442/tf.expand_dims_197/ExpandDims/dim", "op": "Const", "attr": {"value": {"tensor": {"dtype": "DT_INT32", "tensorShape": {}}}, "dtype": {"type": "DT_INT32"}}}, {"name": "ConstantFolding/model_442/tf.concat_111/concat_partial_split_1", "op": "Const", "attr": {"value": {"tensor": {"dtype": "DT_INT64", "tensorShape": {"dim": [{"size": "1200"}, {"size": "32"}, {"size": "8"}, {"size": "2"}]}}}, "dtype": {"type": "DT_INT64"}}}, {"name": "model_442/tf.concat_111/concat/axis", "op": "Const", "attr": {"value": {"tensor": {"dtype": "DT_INT32", "tensorShape": {}}}, "dtype": {"type": "DT_INT32"}}}, {"name": "model_442/tf.compat.v1.transpose_974/transpose/perm", "op": "Const", "attr": {"value": {"tensor": {"dtype": "DT_INT32", "tensorShape": {"dim": [{"size": "3"}]}}}, "dtype": {"type": "DT_INT32"}}}, {"name": "model_442/tf.math.add_347/Add/y", "op": "Const", "attr": {"value": {"tensor": {"dtype": "DT_FLOAT", "tensorShape": {}}}, "dtype": {"type": "DT_FLOAT"}}}, {"name": "model_442/tf.math.multiply_863/Mul/y", "op": "Const", "attr": {"value": {"tensor": {"dtype": "DT_FLOAT", "tensorShape": {}}}, "dtype": {"type": "DT_FLOAT"}}}, {"name": "model_442/tf.math.subtract_138/Sub/y", "op": "Const", "attr": {"value": {"tensor": {"dtype": "DT_FLOAT", "tensorShape": {}}}, "dtype": {"type": "DT_FLOAT"}}}, {"name": "model_442/tf.math.multiply_864/Mul/y", "op": "Const", "attr": {"value": {"tensor": {"dtype": "DT_FLOAT", "tensorShape": {}}}, "dtype": {"type": "DT_FLOAT"}}}, {"name": "model_442/tf.reshape_599/Reshape/shape", "op": "Const", "attr": {"value": {"tensor": {"dtype": "DT_INT32", "tensorShape": {"dim": [{"size": "2"}]}}}, "dtype": {"type": "DT_INT32"}}}, {"name": "model_442/tf.split_19/split/split_dim", "op": "Const", "attr": {"value": {"tensor": {"dtype": "DT_INT32", "tensorShape": {}}}, "dtype": {"type": "DT_INT32"}}}, {"name": "model_442/tf.compat.v1.gather_11/GatherV2/indices", "op": "Const", "attr": {"value": {"tensor": {"dtype": "DT_INT32", "tensorShape": {}}}, "dtype": {"type": "DT_INT32"}}}, {"name": "model_442/tf.compat.v1.gather_11/GatherV2/axis", "op": "Const", "attr": {"value": {"tensor": {"dtype": "DT_INT32", "tensorShape": {}}}, "dtype": {"type": "DT_INT32"}}}, {"name": "model_442/tf.compat.v1.transpose_955/transpose/perm", "op": "Const", "attr": {"value": {"tensor": {"dtype": "DT_INT32", "tensorShape": {"dim": [{"size": "5"}]}}}, "dtype": {"type": "DT_INT32"}}}, {"name": "model_442/tf.reshape_592/Reshape/shape", "op": "Const", "attr": {"value": {"tensor": {"dtype": "DT_INT32", "tensorShape": {"dim": [{"size": "4"}]}}}, "dtype": {"type": "DT_INT32"}}}, {"name": "model_442/tf.math.add_348/Add/y", "op": "Const", "attr": {"value": {"tensor": {"dtype": "DT_FLOAT", "tensorShape": {}}}, "dtype": {"type": "DT_FLOAT"}}}, {"name": "model_442/tf.math.multiply_865/Mul/y", "op": "Const", "attr": {"value": {"tensor": {"dtype": "DT_FLOAT", "tensorShape": {}}}, "dtype": {"type": "DT_FLOAT"}}}, {"name": "model_442/tf.math.subtract_139/Sub/y", "op": "Const", "attr": {"value": {"tensor": {"dtype": "DT_FLOAT", "tensorShape": {}}}, "dtype": {"type": "DT_FLOAT"}}}, {"name": "model_442/tf.math.multiply_866/Mul/y", "op": "Const", "attr": {"value": {"tensor": {"dtype": "DT_FLOAT", "tensorShape": {}}}, "dtype": {"type": "DT_FLOAT"}}}, {"name": "model_442/tf.reshape_600/Reshape/shape", "op": "Const", "attr": {"value": {"tensor": {"dtype": "DT_INT32", "tensorShape": {"dim": [{"size": "2"}]}}}, "dtype": {"type": "DT_INT32"}}}, {"name": "model_442/tf.expand_dims_191/ExpandDims/dim", "op": "Const", "attr": {"value": {"tensor": {"dtype": "DT_INT32", "tensorShape": {}}}, "dtype": {"type": "DT_INT32"}}}, {"name": "model_442/tf.reshape_614/Reshape/shape", "op": "Const", "attr": {"value": {"tensor": {"dtype": "DT_INT32", "tensorShape": {"dim": [{"size": "4"}]}}}, "dtype": {"type": "DT_INT32"}}}, {"name": "model_442/tf.compat.v1.transpose_984/transpose/perm", "op": "Const", "attr": {"value": {"tensor": {"dtype": "DT_INT32", "tensorShape": {"dim": [{"size": "4"}]}}}, "dtype": {"type": "DT_INT32"}}}, {"name": "model_442/tf.expand_dims_249/ExpandDims/dim", "op": "Const", "attr": {"value": {"tensor": {"dtype": "DT_INT32", "tensorShape": {}}}, "dtype": {"type": "DT_INT32"}}}, {"name": "model_442/tf.expand_dims_214/ExpandDims/dim", "op": "Const", "attr": {"value": {"tensor": {"dtype": "DT_INT32", "tensorShape": {}}}, "dtype": {"type": "DT_INT32"}}}, {"name": "model_442/tf.math.multiply_902/Mul/y", "op": "Const", "attr": {"value": {"tensor": {"dtype": "DT_INT64", "tensorShape": {"dim": [{"size": "1"}, {"size": "32"}, {"size": "1"}]}}}, "dtype": {"type": "DT_INT64"}}}, {"name": "model_442/tf.tensor_scatter_nd_update_43/TensorScatterUpdate", "op": "Const", "attr": {"value": {"tensor": {"dtype": "DT_INT32", "tensorShape": {"dim": [{"size": "3"}]}}}, "dtype": {"type": "DT_INT32"}}}, {"name": "model_442/tf.expand_dims_226/ExpandDims/dim", "op": "Const", "attr": {"value": {"tensor": {"dtype": "DT_INT32", "tensorShape": {}}}, "dtype": {"type": "DT_INT32"}}}, {"name": "ConstantFolding/model_442/tf.concat_122/concat_partial_split_1", "op": "Const", "attr": {"value": {"tensor": {"dtype": "DT_INT64", "tensorShape": {"dim": [{"size": "1200"}, {"size": "32"}, {"size": "8"}, {"size": "2"}]}}}, "dtype": {"type": "DT_INT64"}}}, {"name": "model_442/tf.concat_122/concat/axis", "op": "Const", "attr": {"value": {"tensor": {"dtype": "DT_INT32", "tensorShape": {}}}, "dtype": {"type": "DT_INT32"}}}, {"name": "model_442/tf.compat.v1.transpose_998/transpose/perm", "op": "Const", "attr": {"value": {"tensor": {"dtype": "DT_INT32", "tensorShape": {"dim": [{"size": "3"}]}}}, "dtype": {"type": "DT_INT32"}}}, {"name": "model_442/tf.expand_dims_209/ExpandDims/dim", "op": "Const", "attr": {"value": {"tensor": {"dtype": "DT_INT32", "tensorShape": {}}}, "dtype": {"type": "DT_INT32"}}}, {"name": "model_442/tf.math.greater_63/Greater/y", "op": "Const", "attr": {"value": {"tensor": {"dtype": "DT_INT64", "tensorShape": {}}}, "dtype": {"type": "DT_INT64"}}}, {"name": "model_442/tf.where_94/SelectV2/t", "op": "Const", "attr": {"value": {"tensor": {"dtype": "DT_INT64", "tensorShape": {}}}, "dtype": {"type": "DT_INT64"}}}, {"name": "model_442/tf.math.less_65/Less/y", "op": "Const", "attr": {"value": {"tensor": {"dtype": "DT_INT64", "tensorShape": {}}}, "dtype": {"type": "DT_INT64"}}}, {"name": "model_442/tf.where_93/SelectV2/t", "op": "Const", "attr": {"value": {"tensor": {"dtype": "DT_INT64", "tensorShape": {}}}, "dtype": {"type": "DT_INT64"}}}, {"name": "model_442/tf.expand_dims_216/ExpandDims/dim", "op": "Const", "attr": {"value": {"tensor": {"dtype": "DT_INT32", "tensorShape": {}}}, "dtype": {"type": "DT_INT32"}}}, {"name": "model_442/tf.math.multiply_904/Mul/y", "op": "Const", "attr": {"value": {"tensor": {"dtype": "DT_INT64", "tensorShape": {"dim": [{"size": "1"}, {"size": "32"}, {"size": "1"}]}}}, "dtype": {"type": "DT_INT64"}}}, {"name": "model_442/tf.tensor_scatter_nd_update_42/TensorScatterUpdate", "op": "Const", "attr": {"value": {"tensor": {"dtype": "DT_INT32", "tensorShape": {"dim": [{"size": "3"}]}}}, "dtype": {"type": "DT_INT32"}}}, {"name": "model_442/tf.expand_dims_223/ExpandDims/dim", "op": "Const", "attr": {"value": {"tensor": {"dtype": "DT_INT32", "tensorShape": {}}}, "dtype": {"type": "DT_INT32"}}}, {"name": "ConstantFolding/model_442/tf.concat_121/concat_partial_split_1", "op": "Const", "attr": {"value": {"tensor": {"dtype": "DT_INT64", "tensorShape": {"dim": [{"size": "1200"}, {"size": "32"}, {"size": "8"}, {"size": "2"}]}}}, "dtype": {"type": "DT_INT64"}}}, {"name": "model_442/tf.concat_121/concat/axis", "op": "Const", "attr": {"value": {"tensor": {"dtype": "DT_INT32", "tensorShape": {}}}, "dtype": {"type": "DT_INT32"}}}, {"name": "model_442/tf.compat.v1.transpose_995/transpose/perm", "op": "Const", "attr": {"value": {"tensor": {"dtype": "DT_INT32", "tensorShape": {"dim": [{"size": "3"}]}}}, "dtype": {"type": "DT_INT32"}}}, {"name": "model_442/tf.expand_dims_210/ExpandDims/dim", "op": "Const", "attr": {"value": {"tensor": {"dtype": "DT_INT32", "tensorShape": {}}}, "dtype": {"type": "DT_INT32"}}}, {"name": "model_442/tf.math.greater_65/Greater/y", "op": "Const", "attr": {"value": {"tensor": {"dtype": "DT_INT64", "tensorShape": {}}}, "dtype": {"type": "DT_INT64"}}}, {"name": "model_442/tf.where_98/SelectV2/t", "op": "Const", "attr": {"value": {"tensor": {"dtype": "DT_INT64", "tensorShape": {}}}, "dtype": {"type": "DT_INT64"}}}, {"name": "model_442/tf.math.less_67/Less/y", "op": "Const", "attr": {"value": {"tensor": {"dtype": "DT_INT64", "tensorShape": {}}}, "dtype": {"type": "DT_INT64"}}}, {"name": "model_442/tf.where_97/SelectV2/t", "op": "Const", "attr": {"value": {"tensor": {"dtype": "DT_INT64", "tensorShape": {}}}, "dtype": {"type": "DT_INT64"}}}, {"name": "model_442/tf.math.multiply_900/Mul/y", "op": "Const", "attr": {"value": {"tensor": {"dtype": "DT_INT64", "tensorShape": {}}}, "dtype": {"type": "DT_INT64"}}}, {"name": "model_442/tf.expand_dims_213/ExpandDims/dim", "op": "Const", "attr": {"value": {"tensor": {"dtype": "DT_INT32", "tensorShape": {}}}, "dtype": {"type": "DT_INT32"}}}, {"name": "model_442/tf.math.multiply_901/Mul/y", "op": "Const", "attr": {"value": {"tensor": {"dtype": "DT_INT64", "tensorShape": {"dim": [{"size": "1"}, {"size": "32"}, {"size": "1"}]}}}, "dtype": {"type": "DT_INT64"}}}, {"name": "model_442/tf.tensor_scatter_nd_update_41/TensorScatterUpdate", "op": "Const", "attr": {"value": {"tensor": {"dtype": "DT_INT32", "tensorShape": {"dim": [{"size": "3"}]}}}, "dtype": {"type": "DT_INT32"}}}, {"name": "model_442/tf.expand_dims_220/ExpandDims/dim", "op": "Const", "attr": {"value": {"tensor": {"dtype": "DT_INT32", "tensorShape": {}}}, "dtype": {"type": "DT_INT32"}}}, {"name": "ConstantFolding/model_442/tf.concat_120/concat_partial_split_1", "op": "Const", "attr": {"value": {"tensor": {"dtype": "DT_INT64", "tensorShape": {"dim": [{"size": "1200"}, {"size": "32"}, {"size": "8"}, {"size": "2"}]}}}, "dtype": {"type": "DT_INT64"}}}, {"name": "model_442/tf.concat_120/concat/axis", "op": "Const", "attr": {"value": {"tensor": {"dtype": "DT_INT32", "tensorShape": {}}}, "dtype": {"type": "DT_INT32"}}}, {"name": "model_442/tf.compat.v1.transpose_992/transpose/perm", "op": "Const", "attr": {"value": {"tensor": {"dtype": "DT_INT32", "tensorShape": {"dim": [{"size": "3"}]}}}, "dtype": {"type": "DT_INT32"}}}, {"name": "model_442/tf.expand_dims_212/ExpandDims/dim", "op": "Const", "attr": {"value": {"tensor": {"dtype": "DT_INT32", "tensorShape": {}}}, "dtype": {"type": "DT_INT32"}}}, {"name": "model_442/tf.strided_slice_28/ones_like/tensor", "op": "Const", "attr": {"value": {"tensor": {"dtype": "DT_INT64", "tensorShape": {"dim": [{"size": "4"}]}}}, "dtype": {"type": "DT_INT64"}}}, {"name": "model_442/tf.strided_slice_28/StridedSlice/end", "op": "Const", "attr": {"value": {"tensor": {"dtype": "DT_INT64", "tensorShape": {"dim": [{"size": "4"}]}}}, "dtype": {"type": "DT_INT64"}}}, {"name": "model_442/tf.strided_slice_28/ones_like", "op": "Const", "attr": {"value": {"tensor": {"dtype": "DT_INT64", "tensorShape": {"dim": [{"size": "4"}]}}}, "dtype": {"type": "DT_INT64"}}}, {"name": "model_442/tf.reshape_102/Reshape/shape", "op": "Const", "attr": {"value": {"tensor": {"dtype": "DT_INT32", "tensorShape": {"dim": [{"size": "3"}]}}}, "dtype": {"type": "DT_INT32"}}}, {"name": "model_442/tf.compat.v1.transpose_309/transpose/perm", "op": "Const", "attr": {"value": {"tensor": {"dtype": "DT_INT32", "tensorShape": {"dim": [{"size": "3"}]}}}, "dtype": {"type": "DT_INT32"}}}, {"name": "model_442/tf.reshape_160/Reshape/shape", "op": "Const", "attr": {"value": {"tensor": {"dtype": "DT_INT32", "tensorShape": {"dim": [{"size": "4"}]}}}, "dtype": {"type": "DT_INT32"}}}, {"name": "model_442/tf.compat.v1.transpose_985/transpose/perm", "op": "Const", "attr": {"value": {"tensor": {"dtype": "DT_INT32", "tensorShape": {"dim": [{"size": "4"}]}}}, "dtype": {"type": "DT_INT32"}}}, {"name": "model_442/tf.compat.v1.pad_27/Pad/paddings", "op": "Const", "attr": {"value": {"tensor": {"dtype": "DT_INT32", "tensorShape": {"dim": [{"size": "4"}, {"size": "2"}]}}}, "dtype": {"type": "DT_INT32"}}}, {"name": "model_442/tf.reshape_617/Reshape/shape", "op": "Const", "attr": {"value": {"tensor": {"dtype": "DT_INT32", "tensorShape": {"dim": [{"size": "3"}]}}}, "dtype": {"type": "DT_INT32"}}}, {"name": "model_442/tf.compat.v1.transpose_986/transpose/perm", "op": "Const", "attr": {"value": {"tensor": {"dtype": "DT_INT32", "tensorShape": {"dim": [{"size": "3"}]}}}, "dtype": {"type": "DT_INT32"}}}, {"name": "model_442/tf.math.greater_62/Greater/y", "op": "Const", "attr": {"value": {"tensor": {"dtype": "DT_INT64", "tensorShape": {}}}, "dtype": {"type": "DT_INT64"}}}, {"name": "model_442/tf.where_92/SelectV2/t", "op": "Const", "attr": {"value": {"tensor": {"dtype": "DT_INT64", "tensorShape": {}}}, "dtype": {"type": "DT_INT64"}}}, {"name": "model_442/tf.math.less_64/Less/y", "op": "Const", "attr": {"value": {"tensor": {"dtype": "DT_INT64", "tensorShape": {}}}, "dtype": {"type": "DT_INT64"}}}, {"name": "model_442/tf.where_91/SelectV2/t", "op": "Const", "attr": {"value": {"tensor": {"dtype": "DT_INT64", "tensorShape": {}}}, "dtype": {"type": "DT_INT64"}}}, {"name": "model_442/tf.math.add_362/Add/y", "op": "Const", "attr": {"value": {"tensor": {"dtype": "DT_FLOAT", "tensorShape": {}}}, "dtype": {"type": "DT_FLOAT"}}}, {"name": "model_442/tf.math.add_364/Add/y", "op": "Const", "attr": {"value": {"tensor": {"dtype": "DT_FLOAT", "tensorShape": {}}}, "dtype": {"type": "DT_FLOAT"}}}, {"name": "model_442/tf.math.greater_64/Greater/y", "op": "Const", "attr": {"value": {"tensor": {"dtype": "DT_INT64", "tensorShape": {}}}, "dtype": {"type": "DT_INT64"}}}, {"name": "model_442/tf.where_96/SelectV2/t", "op": "Const", "attr": {"value": {"tensor": {"dtype": "DT_INT64", "tensorShape": {}}}, "dtype": {"type": "DT_INT64"}}}, {"name": "model_442/tf.math.less_66/Less/y", "op": "Const", "attr": {"value": {"tensor": {"dtype": "DT_INT64", "tensorShape": {}}}, "dtype": {"type": "DT_INT64"}}}, {"name": "model_442/tf.where_95/SelectV2/t", "op": "Const", "attr": {"value": {"tensor": {"dtype": "DT_INT64", "tensorShape": {}}}, "dtype": {"type": "DT_INT64"}}}, {"name": "model_442/tf.math.add_363/Add/y", "op": "Const", "attr": {"value": {"tensor": {"dtype": "DT_FLOAT", "tensorShape": {}}}, "dtype": {"type": "DT_FLOAT"}}}, {"name": "model_442/tf.math.add_365/Add/y", "op": "Const", "attr": {"value": {"tensor": {"dtype": "DT_FLOAT", "tensorShape": {}}}, "dtype": {"type": "DT_FLOAT"}}}, {"name": "model_442/tf.math.multiply_899/Mul/y", "op": "Const", "attr": {"value": {"tensor": {"dtype": "DT_INT64", "tensorShape": {}}}, "dtype": {"type": "DT_INT64"}}}, {"name": "model_442/tf.expand_dims_215/ExpandDims/dim", "op": "Const", "attr": {"value": {"tensor": {"dtype": "DT_INT32", "tensorShape": {}}}, "dtype": {"type": "DT_INT32"}}}, {"name": "model_442/tf.math.multiply_903/Mul/y", "op": "Const", "attr": {"value": {"tensor": {"dtype": "DT_INT64", "tensorShape": {"dim": [{"size": "1"}, {"size": "32"}, {"size": "1"}]}}}, "dtype": {"type": "DT_INT64"}}}, {"name": "model_442/tf.tensor_scatter_nd_update_40/TensorScatterUpdate", "op": "Const", "attr": {"value": {"tensor": {"dtype": "DT_INT32", "tensorShape": {"dim"…
: "model_442/tf.tensor_scatter_nd_update_9/TensorScatterUpdate", "shape": [3], "dtype": "int32"}, {"name": "model_442/tf.expand_dims_51/ExpandDims/dim", "shape": [], "dtype": "int32"}, {"name": "ConstantFolding/model_442/tf.concat_53/concat_partial_split_1", "shape": [1200, 32, 8, 2], "dtype": "int32"}, {"name": "model_442/tf.concat_53/concat/axis", "shape": [], "dtype": "int32"}, {"name": "model_442/tf.compat.v1.transpose_521/transpose/perm", "shape": [3], "dtype": "int32"}, {"name": "model_442/tf.expand_dims_43/ExpandDims/dim", "shape": [], "dtype": "int32"}, {"name": "model_442/tf.linalg.matmul_10/MatMul/b", "shape": [256, 256], "dtype": "float32"}, {"name": "model_442/tf.__operators__.add_6/AddV2/y", "shape": [256], "dtype": "float32"}, {"name": "model_442/tf.reshape_63/Reshape/shape", "shape": [4], "dtype": "int32"}, {"name": "model_442/tf.strided_slice_20/ones_like/tensor", "shape": [4], "dtype": "int32"}, {"name": "model_442/tf.strided_slice_20/StridedSlice/end", "shape": [4], "dtype": "int32"}, {"name": "model_442/tf.strided_slice_20/ones_like", "shape": [4], "dtype": "int32"}, {"name": "model_442/tf.reshape_78/Reshape/shape", "shape": [3], "dtype": "int32"}, {"name": "model_442/tf.compat.v1.transpose_301/transpose/perm", "shape": [3], "dtype": "int32"}, {"name": "model_442/tf.reshape_136/Reshape/shape", "shape": [4], "dtype": "int32"}, {"name": "model_442/tf.compat.v1.transpose_514/transpose/perm", "shape": [4], "dtype": "int32"}, {"name": "model_442/tf.compat.v1.pad_19/Pad/paddings", "shape": [4, 2], "dtype": "int32"}, {"name": "model_442/tf.reshape_273/Reshape/shape", "shape": [3], "dtype": "int32"}, {"name": "model_442/tf.compat.v1.transpose_515/transpose/perm", "shape": [3], "dtype": "int32"}, {"name": "model_442/tf.math.greater_14/Greater/y", "shape": [], "dtype": "int32"}, {"name": "model_442/tf.where_20/SelectV2/t", "shape": [], "dtype": "int32"}, {"name": "model_442/tf.math.less_16/Less/y", "shape": [], "dtype": "int32"}, {"name": "model_442/tf.where_19/SelectV2/t", "shape": [], "dtype": "int32"}, {"name": "model_442/tf.math.add_237/Add/y", "shape": [], "dtype": "float32"}, {"name": "model_442/tf.math.add_239/Add/y", "shape": [], "dtype": "float32"}, {"name": "model_442/tf.math.greater_16/Greater/y", "shape": [], "dtype": "int32"}, {"name": "model_442/tf.where_24/SelectV2/t", "shape": [], "dtype": "int32"}, {"name": "model_442/tf.math.less_18/Less/y", "shape": [], "dtype": "int32"}, {"name": "model_442/tf.where_23/SelectV2/t", "shape": [], "dtype": "int32"}, {"name": "model_442/tf.math.add_238/Add/y", "shape": [], "dtype": "float32"}, {"name": "model_442/tf.math.add_240/Add/y", "shape": [], "dtype": "float32"}, {"name": "model_442/tf.math.multiply_513/Mul/y", "shape": [], "dtype": "int32"}, {"name": "model_442/tf.expand_dims_46/ExpandDims/dim", "shape": [], "dtype": "int32"}, {"name": "model_442/tf.math.multiply_517/Mul/y", "shape": [1, 32, 1], "dtype": "int32"}, {"name": "model_442/tf.tensor_scatter_nd_update_8/TensorScatterUpdate", "shape": [3], "dtype": "int32"}, {"name": "model_442/tf.expand_dims_48/ExpandDims/dim", "shape": [], "dtype": "int32"}, {"name": "ConstantFolding/model_442/tf.concat_52/concat_partial_split_1", "shape": [1200, 32, 8, 2], "dtype": "int32"}, {"name": "model_442/tf.concat_52/concat/axis", "shape": [], "dtype": "int32"}, {"name": "model_442/tf.compat.v1.transpose_518/transpose/perm", "shape": [3], "dtype": "int32"}, {"name": "model_442/tf.math.add_235/Add/y", "shape": [], "dtype": "float32"}, {"name": "model_442/tf.math.multiply_505/Mul/y", "shape": [], "dtype": "float32"}, {"name": "model_442/tf.math.subtract_38/Sub/y", "shape": [], "dtype": "float32"}, {"name": "model_442/tf.math.multiply_506/Mul/y", "shape": [], "dtype": "float32"}, {"name": "model_442/tf.reshape_271/Reshape/shape", "shape": [2], "dtype": "int32"}, {"name": "model_442/tf.split_5/split/split_dim", "shape": [], "dtype": "int32"}, {"name": "model_442/tf.strided_slice_39/StridedSlice/begin", "shape": [6], "dtype": "int32"}, {"name": "model_442/tf.strided_slice_39/StridedSlice/end", "shape": [6], "dtype": "int32"}, {"name": "model_442/tf.strided_slice_39/StridedSlice/strides", "shape": [6], "dtype": "int32"}, {"name": "model_442/tf.linalg.matmul_32/MatMul/b", "shape": [256, 192], "dtype": "float32"}, {"name": "model_442/tf.__operators__.add_26/AddV2/y", "shape": [192], "dtype": "float32"}, {"name": "model_442/tf.reshape_223/Reshape/shape", "shape": [6], "dtype": "int32"}, {"name": "model_442/tf.math.multiply_429/Mul", "shape": [], "dtype": "float32"}, {"name": "model_442/tf.reshape_201/Reshape/shape", "shape": [6], "dtype": "int32"}, {"name": "model_442/tf.strided_slice_37/StridedSlice/begin", "shape": [6], "dtype": "int32"}, {"name": "model_442/tf.strided_slice_37/StridedSlice/end", "shape": [6], "dtype": "int32"}, {"name": "model_442/tf.strided_slice_37/StridedSlice/strides", "shape": [6], "dtype": "int32"}, {"name": "model_442/tf.math.multiply_435/Mul/y", "shape": [], "dtype": "float32"}, {"name": "model_442/tf.math.subtract_4/Sub/y", "shape": [], "dtype": "float32"}, {"name": "model_442/tf.compat.v1.gather_4/GatherV2/indices", "shape": [], "dtype": "int32"}, {"name": "model_442/tf.compat.v1.gather_4/GatherV2/axis", "shape": [], "dtype": "int32"}, {"name": "model_442/tf.compat.v1.transpose_471/transpose/perm", "shape": [5], "dtype": "int32"}, {"name": "model_442/tf.reshape_238/Reshape/shape", "shape": [4], "dtype": "int32"}, {"name": "model_442/tf.math.add_236/Add/y", "shape": [], "dtype": "float32"}, {"name": "model_442/tf.math.multiply_507/Mul/y", "shape": [], "dtype": "float32"}, {"name": "model_442/tf.math.subtract_39/Sub/y", "shape": [], "dtype": "float32"}, {"name": "model_442/tf.math.multiply_508/Mul/y", "shape": [], "dtype": "float32"}, {"name": "model_442/tf.reshape_272/Reshape/shape", "shape": [2], "dtype": "int32"}, {"name": "model_442/tf.expand_dims_42/ExpandDims/dim", "shape": [], "dtype": "int32"}, {"name": "model_442/tf.reshape_286/Reshape/shape", "shape": [4], "dtype": "int32"}, {"name": "model_442/tf.compat.v1.transpose_528/transpose/perm", "shape": [4], "dtype": "int32"}, {"name": "model_442/tf.expand_dims_62/ExpandDims/dim", "shape": [], "dtype": "int32"}, {"name": "model_442/tf.concat_56/concat/axis", "shape": [], "dtype": "int32"}, {"name": "model_442/tf.compat.v1.transpose_531/transpose/perm", "shape": [5], "dtype": "int32"}, {"name": "model_442/tf.reshape_289/Reshape/shape", "shape": [4], "dtype": "int32"}, {"name": "model_442/layer_normalization_3/batchnorm/ReadVariableOp", "shape": [256], "dtype": "float32"}, {"name": "model_442/tf.linalg.matmul_24/MatMul/b", "shape": [256, 256], "dtype": "float32"}, {"name": "model_442/tf.__operators__.add_22/AddV2/y", "shape": [256], "dtype": "float32"}, {"name": "model_442/tf.reshape_213/Reshape/shape", "shape": [3], "dtype": "int32"}, {"name": "model_442/tf.compat.v1.transpose_442/transpose/perm", "shape": [3], "dtype": "int32"}, {"name": "model_442/tf.math.multiply_417/Mul/y", "shape": [], "dtype": "float32"}, {"name": "model_442/tf.compat.v1.transpose_433/transpose/perm", "shape": [3], "dtype": "int32"}, {"name": "model_442/tf.reshape_212/Reshape/shape", "shape": [2], "dtype": "int32"}, {"name": "model_442/tf.linalg.matmul_25/MatMul/b", "shape": [256, 256], "dtype": "float32"}, {"name": "model_442/tf.__operators__.add_23/AddV2/y", "shape": [256], "dtype": "float32"}, {"name": "model_442/tf.reshape_214/Reshape/shape", "shape": [3], "dtype": "int32"}, {"name": "model_442/tf.compat.v1.transpose_443/transpose/perm", "shape": [3], "dtype": "int32"}, {"name": "model_442/tf.compat.v1.transpose_395/transpose/perm", "shape": [3], "dtype": "int32"}, {"name": "model_442/tf.reshape_190/Reshape/shape", "shape": [2], "dtype": "int32"}, {"name": "model_442/tf.linalg.matmul_19/MatMul/b", "shape": [256, 256], "dtype": "float32"}, {"name": "model_442/tf.__operators__.add_17/AddV2/y", "shape": [256], "dtype": "float32"}, {"name": "model_442/tf.reshape_192/Reshape/shape", "shape": [3], "dtype": "int32"}, {"name": "model_442/tf.compat.v1.transpose_408/transpose/perm", "shape": [3], "dtype": "int32"}, {"name": "model_442/tf.compat.v1.transpose_444/transpose/perm", "shape": [3], "dtype": "int32"}, {"name": "model_442/tf.reshape_217/Reshape/shape", "shape": [2], "dtype": "int32"}, {"name": "model_442/tf.linalg.matmul_30/MatMul/b", "shape": [256, 256], "dtype": "float32"}, {"name": "model_442/tf.__operators__.add_24/AddV2/y", "shape": [256], "dtype": "float32"}, {"name": "model_442/tf.reshape_218/Reshape/shape", "shape": [3], "dtype": "int32"}, {"name": "model_442/tf.compat.v1.transpose_451/transpose/perm", "shape": [3], "dtype": "int32"}, {"name": "model_442/layer_normalization_3/moments/mean/reduction_indices", "shape": [1], "dtype": "int32"}, {"name": "model_442/layer_normalization_3/moments/variance/reduction_indices", "shape": [1], "dtype": "int32"}, {"name": "model_442/layer_normalization_3/batchnorm/add/y", "shape": [], "dtype": "float32"}, {"name": "model_442/layer_normalization_3/batchnorm/mul/ReadVariableOp", "shape": [256], "dtype": "float32"}, {"name": "model_442/tf.reshape_204/Reshape/shape", "shape": [2], "dtype": "int32"}, {"name": "model_442/tf.linalg.matmul_22/MatMul/b", "shape": [4, 512], "dtype": "float32"}, {"name": "model_442/tf.__operators__.add_20/AddV2/y", "shape": [512], "dtype": "float32"}, {"name": "model_442/tf.linalg.matmul_23/MatMul/b", "shape": [512, 256], "dtype": "float32"}, {"name": "model_442/tf.__operators__.add_21/AddV2/y", "shape": [256], "dtype": "float32"}, {"name": "model_442/tf.reshape_209/Reshape/shape", "shape": [3], "dtype": "int32"}, {"name": "model_442/tf.reshape_221/Reshape/shape", "shape": [2], "dtype": "int32"}, {"name": "model_442/tf.linalg.matmul_31/MatMul/b", "shape": [256, 96], "dtype": "float32"}, {"name": "model_442/tf.__operators__.add_25/AddV2/y", "shape": [96], "dtype": "float32"}, {"name": "model_442/tf.reshape_222/Reshape/shape", "shape": [4], "dtype": "int32"}, {"name": "model_442/tf.reshape_226/Reshape/shape", "shape": [5], "dtype": "int32"}, {"name": "model_442/tf.compat.v1.transpose_464/transpose/perm", "shape": [5], "dtype": "int32"}, {"name": "model_442/tf.reshape_229/Reshape/shape", "shape": [4], "dtype": "int32"}, {"name": "model_442/tf.math.reduce_sum_1/Sum/reduction_indices", "shape": [1], "dtype": "int32"}, {"name": "model_442/tf.reshape_292/Reshape/shape", "shape": [3], "dtype": "int32"}, {"name": "model_442/tf.compat.v1.transpose_538/transpose/perm", "shape": [3], "dtype": "int32"}, {"name": "model_442/tf.reshape_295/Reshape/shape", "shape": [2], "dtype": "int32"}, {"name": "model_442/tf.linalg.matmul_33/MatMul/b", "shape": [256, 256], "dtype": "float32"}, {"name": "model_442/tf.__operators__.add_48/AddV2/y", "shape": [256], "dtype": "float32"}, {"name": "model_442/tf.reshape_296/Reshape/shape", "shape": [3], "dtype": "int32"}, {"name": "model_442/layer_normalization_4/moments/mean/reduction_indices", "shape": [1], "dtype": "int32"}, {"name": "model_442/layer_normalization_4/moments/variance/reduction_indices", "shape": [1], "dtype": "int32"}, {"name": "model_442/layer_normalization_4/batchnorm/add/y", "shape": [], "dtype": "float32"}, {"name": "model_442/layer_normalization_4/batchnorm/mul/ReadVariableOp", "shape": [256], "dtype": "float32"}, {"name": "model_442/tf.reshape_299/Reshape/shape", "shape": [2], "dtype": "int32"}, {"name": "model_442/tf.linalg.matmul_34/MatMul/b", "shape": [256, 1024], "dtype": "float32"}, {"name": "model_442/tf.__operators__.add_49/AddV2/y", "shape": [1024], "dtype": "float32"}, {"name": "model_442/tf.linalg.matmul_35/MatMul/b", "shape": [1024, 256], "dtype": "float32"}, {"name": "model_442/tf.__operators__.add_50/AddV2/y", "shape": [256], "dtype": "float32"}, {"name": "model_442/tf.reshape_304/Reshape/shape", "shape": [3], "dtype": "int32"}, {"name": "model_442/layer_normalization_5/moments/mean/reduction_indices", "shape": [1], "dtype": "int32"}, {"name": "model_442/layer_normalization_5/moments/variance/reduction_indices", "shape": [1], "dtype": "int32"}, {"name": "model_442/layer_normalization_5/batchnorm/add/y", "shape": [], "dtype": "float32"}, {"name": "model_442/layer_normalization_5/batchnorm/mul/ReadVariableOp", "shape": [256], "dtype": "float32"}, {"name": "model_442/tf.reshape_307/Reshape/shape", "shape": [2], "dtype": "int32"}, {"name": "model_442/tf.linalg.matmul_36/MatMul/b", "shape": [256, 256], "dtype": "float32"}, {"name": "model_442/tf.__operators__.add_51/AddV2/y", "shape": [256], "dtype": "float32"}, {"name": "model_442/tf.linalg.matmul_38/MatMul/b", "shape": [256, 256], "dtype": "float32"}, {"name": "model_442/tf.__operators__.add_53/AddV2/y", "shape": [256], "dtype": "float32"}, {"name": "model_442/tf.linalg.matmul_39/MatMul/b", "shape": [256, 4], "dtype": "float32"}, {"name": "model_442/tf.__operators__.add_54/AddV2/y", "shape": [4], "dtype": "float32"}, {"name": "model_442/tf.reshape_320/Reshape/shape", "shape": [3], "dtype": "int32"}, {"name": "model_442/tf.math.maximum/Maximum/y", "shape": [], "dtype": "float32"}, {"name": "model_442/934376", "shape": [], "dtype": "float32"}, {"name": "model_442/tf.reshape_124/Reshape/shape", "shape": [2], "dtype": "int32"}, {"name": "model_442/tf.math.less_1/Less/y", "shape": [], "dtype": "int32"}, {"name": "model_442/tf.__operators__.getitem/strided_slice", "shape": [], "dtype": "int32"}, {"name": "model_442/tf.compat.v1.gather_1/GatherV2/axis", "shape": [], "dtype": "int32"}, {"name": "model_442/tf.reshape_184/Reshape/shape", "shape": [3], "dtype": "int32"}, {"name": "model_442/tf.reshape_187/Reshape/shape", "shape": [2], "dtype": "int32"}, {"name": "model_442/tf.linalg.matmul_18/MatMul/b", "shape": [256, 256], "dtype": "float32"}, {"name": "model_442/tf.__operators__.add_16/AddV2/y", "shape": [256], "dtype": "float32"}, {"name": "model_442/tf.linalg.matmul_20/MatMul/b", "shape": [256, 256], "dtype": "float32"}, {"name": "model_442/tf.__operators__.add_18/AddV2/y", "shape": [256], "dtype": "float32"}, {"name": "model_442/tf.linalg.matmul_21/MatMul/b", "shape": [256, 4], "dtype": "float32"}, {"name": "model_442/tf.__operators__.add_19/AddV2/y", "shape": [4], "dtype": "float32"}, {"name": "model_442/tf.reshape_200/Reshape/shape", "shape": [3], "dtype": "int32"}, {"name": "model_442/932765", "shape": [1, 2100, 4], "dtype": "float32"}, {"name": "model_442/tf.reshape_183/Reshape/shape", "shape": [1], "dtype": "int32"}, {"name": "model_442/tf.math.less/Less/y", "shape": [], "dtype": "int32"}, {"name": "model_442/tf.math.multiply_395/Mul/y", "shape": [], "dtype": "int32"}, {"name": "model_442/tf.compat.v1.gather/GatherV2/axis", "shape": [], "dtype": "int32"}, {"name": "model_442/tf.clip_by_value/clip_by_value/Minimum/y", "shape": [], "dtype": "float32"}, {"name": "model_442/tf.clip_by_value/clip_by_value/y", "shape": [], "dtype": "float32"}, {"name": "model_442/tf.math.maximum_1/Maximum/y", "shape": [], "dtype": "float32"}, {"name": "model_442/tf.clip_by_value_13/clip_by_value/Minimum/y", "shape": [], "dtype": "float32"}, {"name": "model_442/tf.clip_by_value_13/clip_by_value/y", "shape": [], "dtype": "float32"}, {"name": "model_442/tf.math.maximum_3/Maximum/y", "shape": [], "dtype": "float32"}, {"name": "model_442/tf.clip_by_value_26/clip_by_value/Minimum/y", "shape": [], "dtype": "float32"}, {"name": "model_442/tf.clip_by_value_26/clip_by_value/y", "shape": [], "dtype": "float32"}, {"name": "model_442/tf.math.maximum_5/Maximum/y", "shape": [], "dtype": "float32"}, {"name": "model_442/tf.clip_by_value_39/clip_by_value/Minimum/y", "shape": [], "dtype": "float32"}, {"name": "model_442/tf.clip_by_value_39/clip_by_value/y", "shape": [], "dtype": "float32"}, {"name": "model_442/tf.math.maximum_7/Maximum/y", "shape": [], "dtype": "float32"}, {"name": "model_442/tf.clip_by_value_52/clip_by_value/Minimum/y", "shape": [], "dtype": "float32"}, {"name": "model_442/tf.clip_by_value_52/clip_by_value/y", "shape": [], "dtype": "float32"}, {"name": "model_442/tf.math.maximum_9/Maximum/y", "shape": [], "dtype": "float32"}, {"name": "model_442/tf.reshape_804/Reshape/shape", "shape": [2], "dtype": "int32"}, {"name": "model_442/tf.linalg.matmul_112/MatMul/b", "shape": [4, 512], "dtype": "float32"}, {"name": "model_442/tf.__operators__.add_195/AddV2/y", "shape": [512], "dtype": "float32"}, {"name": "model_442/tf.linalg.matmul_113/MatMul/b", "shape": [512, 256], "dtype": "float32"}, {"name": "model_442/tf.__operators__.add_196/AddV2/y", "shape": [256], "dtype": "float32"}, {"name": "model_442/tf.reshape_809/Reshape/shape", "shape": [3], "dtype": "int32"}, {"name": "model_442/tf.reshape_821/Reshape/shape", "shape": [2], "dtype": "int32"}, {"name": "model_442/tf.linalg.matmul_121/MatMul/b", "shape": [256, 96], "dtype": "float32"}, {"name": "model_442/tf.__operators__.add_200/AddV2/y", "shape": [96], "dtype": "float32"}, {"name": "model_442/tf.reshape_822/Reshape/shape", "shape": [4], "dtype": "int32"}, {"name": "model_442/tf.reshape_826/Reshape/shape", "shape": [5], "dtype": "int32"}, {"name": "model_442/tf.compat.v1.transpose_1274/transpose/perm", "shape": [5], "dtype": "int32"}, {"name": "model_442/tf.reshape_829/Reshape/shape", "shape": [4], "dtype": "int32"}, {"name": "model_442/tf.math.reduce_sum_11/Sum/reduction_indices", "shape": [1], "dtype": "int32"}, {"name": "model_442/tf.reshape_892/Reshape/shape", "shape": [3], "dtype": "int32"}, {"name": "model_442/tf.compat.v1.transpose_1348/transpose/perm", "shape": [3], "dtype": "int32"}, {"name": "model_442/tf.reshape_895/Reshape/shape", "shape": [2], "dtype": "int32"}, {"name": "model_442/tf.linalg.matmul_123/MatMul/b", "shape": [256, 256], "dtype": "float32"}, {"name": "model_442/tf.__operators__.add_223/AddV2/y", "shape": [256], "dtype": "float32"}, {"name": "model_442/tf.reshape_896/Reshape/shape", "shape": [3], "dtype": "int32"}, {"name": "model_442/layer_normalization_19/moments/mean/reduction_indices", "shape": [1], "dtype": "int32"}, {"name": "model_442/layer_normalization_19/moments/variance/reduction_indices", "shape": [1], "dtype": "int32"}, {"name": "model_442/layer_normalization_19/batchnorm/add/y", "shape": [], "dtype": "float32"}, {"name": "model_442/layer_normalization_19/batchnorm/mul/ReadVariableOp", "shape": [256], "dtype": "float32"}, {"name": "model_442/tf.reshape_899/Reshape/shape", "shape": [2], "dtype": "int32"}, {"name": "model_442/tf.linalg.matmul_124/MatMul/b", "shape": [256, 1024], "dtype": "float32"}, {"name": "model_442/tf.__operators__.add_224/AddV2/y", "shape": [1024], "dtype": "float32"}, {"name": "model_442/tf.linalg.matmul_125/MatMul/b", "shape": [1024, 256], "dtype": "float32"}, {"name": "model_442/tf.__operators__.add_225/AddV2/y", "shape": [256], "dtype": "float32"}, {"name": "model_442/tf.reshape_904/Reshape/shape", "shape": [3], "dtype": "int32"}, {"name": "model_442/layer_normalization_20/moments/mean/reduction_indices", "shape": [1], "dtype": "int32"}, {"name": "model_442/layer_normalization_20/moments/variance/reduction_indices", "shape": [1], "dtype": "int32"}, {"name": "model_442/layer_normalization_20/batchnorm/add/y", "shape": [], "dtype": "float32"}, {"name": "model_442/layer_normalization_20/batchnorm/mul/ReadVariableOp", "shape": [256], "dtype": "float32"}, {"name": "model_442/tf.reshape_907/Reshape/shape", "shape": [2], "dtype": "int32"}, {"name": "model_442/tf.linalg.matmul_127/MatMul/b", "shape": [256, 1], "dtype": "float32"}, {"name": "model_442/tf.__operators__.add_227/AddV2/y", "shape": [1], "dtype": "float32"}, {"name": "model_442/tf.reshape_910/Reshape/shape", "shape": [4], "dtype": "int32"}, {"name": "model_442/output0/concat/axis", "shape": [], "dtype": "int32"}, {"name": "model_442/layer_normalization_2/batchnorm/ReadVariableOp", "shape": [256], "dtype": "float32"}, {"name": "model_442/tf.nn.convolution_133/convolution/filter", "shape": [1, 1, 256, 256], "dtype": "float32"}, {"name": "model_442/tf.math.add_186/Add/y", "shape": [256], "dtype": "float32"}, {"name": "model_442/tf.compat.v1.transpose_175/transpose/perm", "shape": [4], "dtype": "int32"}, {"name": "model_442/tf.reshape_53/Reshape/shape", "shape": [3], "dtype": "int32"}, {"name": "model_442/tf.compat.v1.transpose_179/transpose/perm", "shape": [3], "dtype": "int32"}, {"name": "model_442/tf.nn.convolution_140/convolution/filter", "shape": [1, 1, 256, 256], "dtype": "float32"}, {"name": "model_442/tf.math.add_195/Add/y", "shape": [256], "dtype": "float32"}, {"name": "model_442/tf.compat.v1.transpose_188/transpose/perm", "shape": [4], "dtype": "int32"}, {"name": "model_442/tf.reshape_56/Reshape/shape", "shape": [3], "dtype": "int32"}, {"name": "model_442/tf.compat.v1.transpose_192/transpose/perm", "shape": [3], "dtype": "int32"}, {"name": "model_442/tf.nn.convolution_141/convolution/filter", "shape": [1, 1, 512, 256], "dtype": "float32"}, {"name": "model_442/tf.math.add_196/Add/y", "shape": [256], "dtype": "float32"}, {"name": "model_442/tf.nn.convolution_143/convolution/filter", "shape": [3, 3, 256, 256], "dtype": "float32"}, {"name": "model_442/tf.math.add_198/Add/y", "shape": [256], "dtype": "float32"}, {"name": "model_442/tf.nn.convolution_144/convolution/filter", "shape": [3, 3, 256, 256], "dtype": "float32"}, {"name": "model_442/tf.math.add_199/Add/y", "shape": [256], "dtype": "float32"}, {"name": "model_442/tf.nn.convolution_145/convolution/filter", "shape": [3, 3, 256, 256], "dtype": "float32"}, {"name": "model_442/tf.math.add_200/Add/y", "shape": [256], "dtype": "float32"}, {"name": "model_442/tf.nn.convolution_134/convolution/filter", "shape": [1, 1, 512, 256], "dtype": "float32"}, {"name": "model_442/tf.math.add_187/Add/y", "shape": [256], "dtype": "float32"}, {"name": "model_442/tf.nn.convolution_136/convolution/filter", "shape": [3, 3, 256, 256], "dtype": "float32"}, {"name": "model_442/tf.math.add_189/Add/y", "shape": [256], "dtype": "float32"}, {"name": "model_442/tf.nn.convolution_137/convolution/filter", "shape": [3, 3, 256, 256], "dtype": "float32"}, {"name": "model_442/tf.math.add_190/Add/y", "shape": [256], "dtype": "float32"}, {"name": "model_442/tf.nn.convolution_138/convolution/filter", "shape": [3, 3, 256, 256], "dtype": "float32"}, {"name": "model_442/tf.math.add_191/Add/y", "shape": [256], "dtype": "float32"}, {"name": "model_442/tf.nn.convolution_127/convolution/filter", "shape": [1, 1, 512, 256], "dtype": "float32"}, {"name": "model_442/tf.math.add_178/Add/y", "shape": [256], "dtype": "float32"}, {"name": "model_442/tf.nn.convolution_129/convolution/filter", "shape": [3, 3, 256, 256], "dtype": "float32"}, {"name": "model_442/tf.math.add_180/Add/y", "shape": [256], "dtype": "float32"}, {"name": "model_442/tf.nn.convolution_130/convolution/filter", "shape": [3, 3, 256, 256], "dtype": "float32"}, {"name": "model_442/tf.math.add_181/Add/y", "shape": [256], "dtype": "float32"}, {"name": "model_442/tf.nn.convolution_131/convolution/filter", "shape": [3, 3, 256, 256], "dtype": "float32"}, {"name": "model_442/tf.math.add_182/Add/y", "shape": [256], "dtype": "float32"}, {"name": "model_442/tf.image.resize_3/resize/size", "shape": [2], "dtype": "int32"}, {"name": "model_442/tf.nn.convolution_85/convolution/filter", "shape": [1, 1, 512, 256], "dtype": "float32"}, {"name": "model_442/tf.math.add_100/Add/y", "shape": [256], "dtype": "float32"}, {"name": "model_442/tf.concat_28/concat/axis", "shape": [], "dtype": "int32"}, {"name": "model_442/tf.nn.convolution_128/convolution/filter", "shape": [1, 1, 512, 256], "dtype": "float32"}, {"name": "model_442/tf.math.add_179/Add/y", "shape": [256], "dtype": "float32"}, {"name": "model_442/tf.compat.v1.pad_15/Pad/paddings", "shape": [4, 2], "dtype": "int32"}, {"name": "model_442/tf.nn.convolution_132/convolution/filter", "shape": [3, 3, 256, 256], "dtype": "float32"}, {"name": "model_442/tf.math.add_185/Add/y", "shape": [256], "dtype": "float32"}, {"name": "model_442/tf.nn.convolution_121/convolution/filter", "shape": [1, 1, 512, 256], "dtype": "float32"}, {"name": "model_442/tf.math.add_170/Add/y", "shape": [256], "dtype": "float32"}, {"name": "model_442/tf.nn.convolution_123/convolution/filter", "shape": [3, 3, 256, 256], "dtype": "float32"}, {"name": "model_442/tf.math.add_172/Add/y", "shape": [256], "dtype": "float32"}, {"name": "model_442/tf.nn.convolution_124/convolution/filter", "shape": [3, 3, 256, 256], "dtype": "float32"}, {"name": "model_442/tf.math.add_173/Add/y", "shape": [256], "dtype": "float32"}, {"name": "model_442/tf.nn.convolution_125/convolution/filter", "shape": [3, 3, 256, 256], "dtype": "float32"}, {"name": "model_442/tf.math.add_174/Add/y", "shape": [256], "dtype": "float32"}, {"name": "model_442/tf.image.resize_2/resize/size", "shape": [2], "dtype": "int32"}, {"name": "model_442/tf.nn.convolution_110/convolution/filter", "shape": [1, 1, 1024, 256], "dtype": "float32"}, {"name": "model_442/tf.math.add_148/Add/y", "shape": [256], "dtype": "float32"}, {"name": "model_442/tf.concat_27/concat/axis", "shape": [], "dtype": "int32"}, {"name": "model_442/tf.nn.convolution_122/convolution/filter", "shape": [1, 1, 512, 256], "dtype": "float32"}, {"name": "model_442/tf.math.add_171/Add/y", "shape": [256], "dtype": "float32"}, {"name": "model_442/tf.nn.convolution_126/convolution/filter", "shape": [1, 1, 256, 256], "dtype": "float32"}, {"name": "model_442/tf.math.add_177/Add/y", "shape": [256], "dtype": "float32"}, {"name": "model_442/tf.concat_29/concat/axis", "shape": [], "dtype": "int32"}, {"name": "model_442/tf.nn.convolution_135/convolution/filter", "shape": [1, 1, 512, 256], "dtype": "float32"}, {"name": "model_442/tf.math.add_188/Add/y", "shape": [256], "dtype": "float32"}, {"name": "model_442/tf.compat.v1.pad_16/Pad/paddings", "shape": [4, 2], "dtype": "int32"}, {"name": "model_442/tf.nn.convolution_139/convolution/filter", "shape": [3, 3, 256, 256], "dtype": "float32"}, {"name": "model_442/tf.math.add_194/Add/y", "shape": [256], "dtype": "float32"}, {"name": "model_442/layer_normalization_1/batchnorm/ReadVariableOp", "shape": [256], "dtype": "float32"}, {"name": "model_442/tf.math.multiply_278/Mul/y", "shape": [], "dtype": "float32"}, {"name": "model_442/layer_normalization/batchnorm/ReadVariableOp", "shape": [256], "dtype": "float32"}, {"name": "model_442/tf.linalg.matmul_1/MatMul/b", "shape": [256, 256], "dtype": "float32"}, {"name": "model_442/tf.__operators__.add_1/AddV2/y", "shape": [256], "dtype": "float32"}, {"name": "model_442/tf.reshape_34/Reshape/shape", "shape": [3], "dtype": "int32"}, {"name": "model_442/tf.compat.v1.transpose_131/transpose/perm", "shape": [3], "dtype": "int32"}, {"name": "model_442/tf.math.multiply_264/Mul/y", "shape": [], "dtype": "float32"}, {"name": "model_442/tf.compat.v1.transpose_113/transpose/perm", "shape": [3], "dtype": "int32"}, {"name": "model_442/tf.math.add_164/Add/y", "shape": [1, 100, 256], "dtype": "float32"}, {"name": "model_442/tf.compat.v1.transpose_119/transpose/perm", "shape": [3], "dtype": "int32"}, {"name": "model_442/tf.reshape_32/Reshape/shape", "shape": [2], "dtype": "int32"}, {"name": "model_442/tf.linalg.matmul_2/MatMul/b", "shape": [256, 256], "dtype": "float32"}, {"name": "model_442/tf.__operators__.add_2/AddV2/y", "shape": [256], "dtype": "float32"}, {"name": "model_442/tf.reshape_35/Reshape/shape", "shape": [3], "dtype": "int32"}, {"name": "model_442/tf.compat.v1.transpose_132/transpose/perm", "shape": [3], "dtype": "int32"}, {"name": "model_442/tf.nn.convolution_102/convolution/filter", "shape": [1, 1, 1024, 192], "dtype": "float32"}, {"name": "model_442/tf.math.add_131/Add/y", "shape": [192], "dtype": "float32"}, {"name": "model_442/tf.compat.v1.nn.depthwise_conv2d_14/depthwise/filter_in", "shape": [5, 5, 192, 1], "dtype": "float32"}, {"name": "model_442/tf.math.add_132/Add/y", "shape": [192], "dtype": "float32"}, {"name": "model_442/tf.nn.convolution_103/convolution/filter", "shape": [1, 1, 192, 192], "dtype": "float32"}, {"name": "model_442/tf.math.add_133/Add/y", "shape": [192], "dtype": "float32"}, {"name": "model_442/tf.compat.v1.nn.depthwise_conv2d_15/depthwise/filter_in", "shape": [5, 5, 192, 1], "dtype": "float32"}, {"name": "model_442/tf.math.add_134/Add/y", "shape": [192], "dtype": "float32"}, {"name": "model_442/tf.nn.convolution_104/convolution/filter", "shape": [1, 1, 192, 192], "dtype": "float32"}, {"name": "model_442/tf.math.add_135/Add/y", "shape": [192], "dtype": "float32"}, {"name": "model_442/tf.compat.v1.nn.depthwise_conv2d_16/depthwise/filter_in", "shape": [5, 5, 192, 1], "dtype": "float32"}, {"name": "model_442/tf.math.add_136/Add/y", "shape": [192], "dtype": "float32"}, {"name": "model_442/tf.nn.convolution_105/convolution/filter", "shape": [1, 1, 192, 192], "dtype": "float32"}, {"name": "model_442/tf.math.add_137/Add/y", "shape": [192], "dtype": "float32"}, {"name": "model_442/tf.compat.v1.nn.depthwise_conv2d_17/depthwise/filter_in", "shape": [5, 5, 192, 1], "dtype": "float32"}, {"name": "model_442/tf.math.add_138/Add/y", "shape": [192], "dtype": "float32"}, {"name": "model_442/tf.nn.convolution_106/convolution/filter", "shape": [1, 1, 192, 192], "dtype": "float32"}, {"name": "model_442/tf.math.add_139/Add/y", "shape": [192], "dtype": "float32"}, {"name": "model_442/tf.compat.v1.nn.depthwise_conv2d_18/depthwise/filter_in", "shape": [5, 5, 192, 1], "dtype": "float32"}, {"name": "model_442/tf.math.add_140/Add/y", "shape": [192], "dtype": "float32"}, {"name": "model_442/tf.nn.convolution_107/convolution/filter", "shape": [1, 1, 192, 192], "dtype": "float32"}, {"name": "model_442/tf.math.add_141/Add/y", "shape": [192], "dtype": "float32"}, {"name": "model_442/tf.compat.v1.nn.depthwise_conv2d_19/depthwise/filter_in", "shape": [5, 5, 192, 1], "dtype": "float32"}, {"name": "model_442/tf.math.add_142/Add/y", "shape": [192], "dtype": "float32"}, {"name": "model_442/tf.concat_25/concat/axis", "shape": [], "dtype": "int32"}, {"name": "model_442/tf.nn.convolution_108/convolution/filter", "shape": [1, 1, 2176, 512], "dtype": "float32"}, {"name": "model_442/tf.math.add_143/Add/y", "shape": [512], "dtype": "float32"}, {"name": "model_442/tf.nn.convolution_109/convolution/filter", "shape": [1, 1, 512, 1024], "dtype": "float32"}, {"name": "model_442/tf.math.add_144/Add/y", "shape": [1024], "dtype": "float32"}, {"name": "model_442/tf.nn.convolution_94/convolution/filter", "shape": [1, 1, 1024, 192], "dtype": "float32"}, {"name": "model_442/tf.math.add_115/Add/y", "shape": [192], "dtype": "float32"}, {"name": "model_442/tf.compat.v1.nn.depthwise_conv2d_8/depthwise/filter_in", "shape": [5, 5, 192, 1], "dtype": "float32"}, {"name": "model_442/tf.math.add_116/Add/y", "shape": [192], "dtype": "float32"}, {"name": "model_442/tf.nn.convolution_95/convolution/filter", "shape": [1, 1, 192, 192], "dtype": "float32"}, {"name": "model_442/tf.math.add_117/Add/y", "shape": [192], "dtype": "float32"}, {"name": "model_442/tf.compat.v1.nn.depthwise_conv2d_9/depthwise/filter_in", "shape": [5, 5, 192, 1], "dtype": "float32"}, {"name": "model_442/tf.math.add_118/Add/y", "shape": [192], "dtype": "float32"}, {"name": "model_442/tf.nn.convolution_96/convolution/filter", "shape": [1, 1, 192, 192], "dtype": "float32"}, {"name": "model_442/tf.math.add_119/Add/y", "shape": [192], "dtype": "float32"}, {"name": "model_442/tf.compat.v1.nn.depthwise_conv2d_10/depthwise/filter_in", "shape": [5, 5, 192, 1], "dtype": "float32"}, {"name": "model_442/tf.math.add_120/Add/y", "shape": [192], "dtype": "float32"}, {"name": "model_442/tf.nn.convolution_97/convolution/filter", "shape": [1, 1, 192, 192], "dtype": "float32"}, {"name": "model_442/tf.math.add_121/Add/y", "shape": [192], "dtype": "float32"}, {"name": "model_442/tf.compat.v1.nn.depthwise_conv2d_11/depthwise/filter_in", "shape": [5, 5, 192, 1], "dtype": "float32"}, {"name": "model_442/tf.math.add_122/Add/y", "shape": [192], "dtype": "float32"}, {"name": "model_442/tf.nn.convolution_98/convolution/filter", "shape": [1, 1, 192, 192], "dtype": "float32"}, {"name": "model_442/tf.math.add_123/Add/y", "shape": [192], "dtype": "float32"}, {"name": "model_442/tf.compat.v1.nn.depthwise_conv2d_12/depthwise/filter_in", "shape": [5, 5, 192, 1], "dtype": "float32"}, {"name": "model_442/tf.math.add_124/Add/y", "shape": [192], "dtype": "float32"}, {"name": "model_442/tf.nn.convolution_99/convolution/filter", "shape": [1, 1, 192, 192], "dtype": "float32"}, {"name": "model_442/tf.math.add_125/Add/y", "shape": [192], "dtype": "float32"}, {"name": "model_442/tf.compat.v1.nn.depthwise_conv2d_13/depthwise/filter_in", "shape": [5, 5, 192, 1], "dtype": "float32"}, {"name": "model_442/tf.math.add_126/Add/y", "shape": [192], "dtype": "float32"}, {"name": "model_442/tf.concat_24/concat/axis", "shape": [], "dtype": "int32"}, {"name": "model_442/tf.nn.convolution_100/convolution/filter", "shape": [1, 1, 2176, 512], "dtype": "float32"}, {"name": "model_442/tf.math.add_127/Add/y", "shape": [512], "dtype": "float32"}, {"name": "model_442/tf.nn.convolution_101/convolution/filter", "shape": [1, 1, 512, 1024], "dtype": "float32"}, {"name": "model_442/tf.math.add_128/Add/y", "shape": [1024], "dtype": "float32"}, {"name": "model_442/tf.compat.v1.pad_8/wa/model.0/Pad/paddings", "shape": [4, 2], "dtype": "int32"}, {"name": "model_442/tf.compat.v1.pad_7/Pad/paddings", "shape": [4, 2], "dtype": "int32"}, {"name": "model_442/tf.nn.convolution_64/convolution/filter", "shape": [3, 3, 3, 32], "dtype": "float32"}, {"name": "model_442/tf.math.add_77/Add/y", "shape": [32], "dtype": "float32"}, {"name": "model_442/tf.compat.v1.pad_9/Pad/paddings", "shape": [4, 2], "dtype": "int32"}, {"name": "model_442/tf.nn.convolution_65/convolution/filter", "shape": [2, 2, 32, 16], "dtype": "float32"}, {"name": "model_442/tf.math.add_78/Add/y", "shape": [16], "dtype": "float32"}, {"name": "model_442/tf.compat.v1.pad_10/Pad/paddings", "shape": [4, 2], "dtype": "int32"}, {"name": "model_442/tf.nn.convolution_66/convolution/filter", "shape": [2, 2, 16, 32], "dtype": "float32"}, {"name": "model_442/tf.math.add_79/Add/y", "shape": [32], "dtype": "float32"}, {"name": "model_442/tf.concat_20/concat/axis", "shape": [], "dtype": "int32"}, {"name": "model_442/tf.compat.v1.pad_11/Pad/paddings", "shape": [4, 2], "dtype": "int32"}, {"name": "model_442/tf.nn.convolution_67/convolution/filter", "shape": [3, 3, 64, 32], "dtype": "float32"}, {"name": "model_442/tf.math.add_80/Add/y", "shape": [32], "dtype": "float32"}, {"name": "model_442/tf.nn.convolution_68/convolution/filter", "shape": [1, 1, 32, 48], "dtype": "float32"}, {"name": "model_442/tf.math.add_81/Add/y", "shape": [48], "dtype": "float32"}, {"name": "model_442/tf.nn.convolution_69/convolution/filter", "shape": [3, 3, 48, 48], "dtype": "float32"}, {"name": "model_442/tf.math.add_82/Add/y", "shape": [48], "dtype": "float32"}, {"name": "model_442/tf.nn.convolution_70/convolution/filter", "shape": [3, 3, 48, 48], "dtype": "float32"}, {"name": "model_442/tf.math.add_83/Add/y", "shape": [48], "dtype": "float32"}, {"name": "model_442/tf.nn.convolution_71/convolution/filter", "shape": [3, 3, 48, 48], "dtype": "float32"}, {"name": "model_442/tf.math.add_84/Add/y", "shape": [48], "dtype": "float32"}, {"name": "model_442/tf.nn.convolution_72/convolution/filter", "shape": [3, 3, 48, 48], "dtype": "float32"}, {"name": "model_442/tf.math.add_85/Add/y", "shape": [48], "dtype": "float32"}, {"name": "model_442/tf.nn.convolution_73/convolution/filter", "shape": [3, 3, 48, 48], "dtype": "float32"}, {"name": "model_442/tf.math.add_86/Add/y", "shape": [48], "dtype": "float32"}, {"name": "model_442/tf.nn.convolution_74/convolution/filter", "shape": [3, 3, 48, 48], "dtype": "float32"}, {"name": "model_442/tf.math.add_87/Add/y", "shape": [48], "dtype": "float32"}, {"name": "model_442/tf.concat_21/concat/axis", "shape": [], "dtype": "int32"}, {"name": "model_442/tf.nn.convolution_75/convolution/filter", "shape": [1, 1, 336, 64], "dtype": "float32"}, {"name": "model_442/tf.math.add_88/Add/y", "shape": [64], "dtype": "float32"}, {"name": "model_442/tf.nn.convolution_76/convolution/filter", "shape": [1, 1, 64, 128], "dtype": "float32"}, {"name": "model_442/tf.math.add_89/Add/y", "shape": [128], "dtype": "float32"}, {"name": "model_442/tf.compat.v1.pad_12/Pad/paddings", "shape": [4, 2], "dtype": "int32"}, {"name": "model_442/tf.compat.v1.nn.depthwise_conv2d/depthwise/filter_in", "shape": [3, 3, 128, 1], "dtype": "float32"}, {"name": "model_442/tf.math.add_90/Add/y", "shape": [128], "dtype": "float32"}, {"name": "model_442/tf.nn.convolution_77/convolution/filter", "shape": [3, 3, 128, 96], "dtype": "float32"}, {"name": "model_442/tf.math.add_91/Add/y", "shape": [96], "dtype": "float32"}, {"name": "model_442/tf.nn.convolution_78/convolution/filter", "shape": [3, 3, 96, 96], "dtype": "float32"}, {"name": "model_442/tf.math.add_92/Add/y", "shape": [96], "dtype": "float32"}, {"name": "model_442/tf.nn.convolution_79/convolution/filter", "shape": [3, 3, 96, 96], "dtype": "float32"}, {"name": "model_442/tf.math.add_93/Add/y", "shape": [96], "dtype": "float32"}, {"name": "model_442/tf.nn.convolution_80/convolution/filter", "shape": [3, 3, 96, 96], "dtype": "float32"}, {"name": "model_442/tf.math.add_94/Add/y", "shape": [96], "dtype": "float32"}, {"name": "model_442/tf.nn.convolution_81/convolution/filter", "shape": [3, 3, 96, 96], "dtype": "float32"}, {"name": "model_442/tf.math.add_95/Add/y", "shape": [96], "dtype": "float32"}, {"name": "model_442/tf.nn.convolution_82/convolution/filter", "shape": [3, 3, 96, 96], "dtype": "float32"}, {"name": "model_442/tf.math.add_96/Add/y", "shape": [96], "dtype": "float32"}, {"name": "model_442/tf.concat_22/concat/axis", "shape": [], "dtype": "int32"}, {"name": "model_442/tf.nn.convolution_83/convolution/filter", "shape": [1, 1, 704, 256], "dtype": "float32"}, {"name": "model_442/tf.math.add_97/Add/y", "shape": [256], "dtype": "float32"}, {"name": "model_442/tf.nn.convolution_84/convolution/filter", "shape": [1, 1, 256, 512], "dtype": "float32"}, {"name": "model_442/tf.math.add_98/Add/y", "shape": [512], "dtype": "float32"}, {"name": "model_442/tf.compat.v1.pad_13/Pad/paddings", "shape": [4, 2], "dtype": "int32"}, {"name": "model_442/tf.compat.v1.nn.depthwise_conv2d_1/depthwise/filter_in", "shape": [3, 3, 512, 1], "dtype": "float32"}, {"name": "model_442/tf.math.add_99/Add/y", "shape": [512], "dtype": "float32"}, {"name": "model_442/tf.nn.convolution_86/convolution/filter", "shape": [1, 1, 512, 192], "dtype": "float32"}, {"name": "model_442/tf.math.add_101/Add/y", "shape": [192], "dtype": "float32"}, {"name": "model_442/tf.compat.v1.nn.depthwise_conv2d_2/depthwise/filter_in", "shape": [5, 5, 192, 1], "dtype": "float32"}, {"name": "model_442/tf.math.add_102/Add/y", "shape": [192], "dtype": "float32"}, {"name": "model_442/tf.nn.convolution_87/convolution/filter", "shape": [1, 1, 192, 192], "dtype": "float32"}, {"name": "model_442/tf.math.add_103/Add/y", "shape": [192], "dtype": "float32"}, {"name": "model_442/tf.compat.v1.nn.depthwise_conv2d_3/depthwise/filter_in", "shape": [5, 5, 192, 1], "dtype": "float32"}, {"name": "model_442/tf.math.add_104/Add/y", "shape": [192], "dtype": "float32"}, {"name": "model_442/tf.nn.convolution_88/convolution/filter", "shape": [1, 1, 192, 192], "dtype": "float32"}, {"name": "model_442/tf.math.add_105/Add/y", "shape": [192], "dtype": "float32"}, {"name": "model_442/tf.compat.v1.nn.depthwise_conv2d_4/depthwise/filter_in", "shape": [5, 5, 192, 1], "dtype": "float32"}, {"name": "model_442/tf.math.add_106/Add/y", "shape": [192], "dtype": "float32"}, {"name": "model_442/tf.nn.convolution_89/convolution/filter", "shape": [1, 1, 192, 192], "dtype": "float32"}, {"name": "model_442/tf.math.add_107/Add/y", "shape": [192], "dtype": "float32"}, {"name": "model_442/tf.compat.v1.nn.depthwise_conv2d_5/depthwise/filter_in", "shape": [5, 5, 192, 1], "dtype": "float32"}, {"name": "model_442/tf.math.add_108/Add/y", "shape": [192], "dtype": "float32"}, {"name": "model_442/tf.nn.convolution_90/convolution/filter", "shape": [1, 1, 192, 192], "dtype": "float32"}, {"name": "model_442/tf.math.add_109/Add/y", "shape": [192], "dtype": "float32"}, {"name": "model_442/tf.compat.v1.nn.depthwise_conv2d_6/depthwise/filter_in", "shape": [5, 5, 192, 1], "dtype": "float32"}, {"name": "model_442/tf.math.add_110/Add/y", "shape": [192], "dtype": "float32"}, {"name": "model_442/tf.nn.convolution_91/convolution/filter", "shape": [1, 1, 192, 192], "dtype": "float32"}, {"name": "model_442/tf.math.add_111/Add/y", "shape": [192], "dtype": "float32"}, {"name": "model_442/tf.compat.v1.nn.depthwise_conv2d_7/depthwise/filter_in", "shape": [5, 5, 192, 1], "dtype": "float32"}, {"name": "model_442/tf.math.add_112/Add/y", "shape": [192], "dtype": "float32"}, {"name": "model_442/tf.concat_23/concat/axis", "shape": [], "dtype": "int32"}, {"name": "model_442/tf.nn.convolution_92/convolution/filter", "shape": [1, 1, 1664, 512], "dtype": "float32"}, {"name": "model_442/tf.math.add_113/Add/y", "shape": [512], "dtype": "float32"}, {"name": "model_442/tf.nn.convolution_93/convolution/filter", "shape": [1, 1, 512, 1024], "dtype": "float32"}, {"name": "model_442/tf.math.add_114/Add/y", "shape": [1024], "dtype": "float32"}, {"name": "model_442/tf.compat.v1.pad_14/Pad/paddings", "shape": [4, 2], "dtype": "int32"}, {"name": "model_442/tf.compat.v1.nn.depthwise_conv2d_20/depthwise/filter_in", "shape": [3, 3, 1024, 1], "dtype": "float32"}, {"name": "model_442/tf.math.add_147/Add/y", "shape": [1024], "dtype": "float32"}, {"name": "model_442/tf.nn.convolution_111/convolution/filter", "shape": [1, 1, 1024, 384], "dtype": "float32"}, {"name": "model_442/tf.math.add_149/Add/y", "shape": [384], "dtype": "float32"}, {"name": "model_442/tf.compat.v1.nn.depthwise_conv2d_21/depthwise/filter_in", "shape": [5, 5, 384, 1], "dtype": "float32"}, {"name": "model_442/tf.math.add_150/Add/y", "shape": [384], "dtype": "float32"}, {"name": "model_442/tf.nn.convolution_112/convolution/filter", "shape": [1, 1, 384, 384], "dtype": "float32"}, {"name": "model_442/tf.math.add_151/Add/y", "shape": [384], "dtype": "float32"}, {"name": "model_442/tf.compat.v1.nn.depthwise_conv2d_22/depthwise/filter_in", "shape": [5, 5, 384, 1], "dtype": "float32"}, {"name": "model_442/tf.math.add_152/Add/y", "shape": [384], "dtype": "float32"}, {"name": "model_442/tf.nn.convolution_113/convolution/filter", "shape": [1, 1, 384, 384], "dtype": "float32"}, {"name": "model_442/tf.math.add_153/Add/y", "shape": [384], "dtype": "float32"}, {"name": "model_442/tf.compat.v1.nn.depthwise_conv2d_23/depthwise/filter_in", "shape": [5, 5, 384, 1], "dtype": "float32"}, {"name": "model_442/tf.math.add_154/Add/y", "shape": [384], "dtype": "float32"}, {"name": "model_442/tf.nn.convolution_114/convolution/filter", "shape": [1, 1, 384, 384], "dtype": "float32"}, {"name": "model_442/tf.math.add_155/Add/y", "shape": [384], "dtype": "float32"}, {"name": "model_442/tf.compat.v1.nn.depthwise_conv2d_24/depthwise/filter_in", "shape": [5, 5, 384, 1], "dtype": "float32"}, {"name": "model_442/tf.math.add_156/Add/y", "shape": [384], "dtype": "float32"}, {"name": "model_442/tf.nn.convolution_115/convolution/filter", "shape": [1, 1, 384, 384], "dtype": "float32"}, {"name": "model_442/tf.math.add_157/Add/y", "shape": [384], "dtype": "float32"}, {"name": "model_442/tf.compat.v1.nn.depthwise_conv2d_25/depthwise/filter_in", "shape": [5, 5, 384, 1], "dtype": "float32"}, {"name": "model_442/tf.math.add_158/Add/y", "shape": [384], "dtype": "float32"}, {"name": "model_442/tf.nn.convolution_116/convolution/filter", "shape": [1, 1, 384, 384], "dtype": "float32"}, {"name": "model_442/tf.math.add_159/Add/y", "shape": [384], "dtype": "float32"}, {"name": "model_442/tf.compat.v1.nn.depthwise_conv2d_26/depthwise/filter_in", "shape": [5, 5, 384, 1], "dtype": "float32"}, {"name": "model_442/tf.math.add_160/Add/y", "shape": [384], "dtype": "float32"}, {"name": "model_442/tf.concat_26/concat/axis", "shape": [], "dtype": "int32"}, {"name": "model_442/tf.nn.convolution_117/convolution/filter", "shape": [1, 1, 3328, 1024], "dtype": "float32"}, {"name": "model_442/tf.math.add_161/Add/y", "shape": [1024], "dtype": "float32"}, {"name": "model_442/tf.nn.convolution_118/convolution/filter", "shape": [1, 1, 1024, 2048], "dtype": "float32"}, {"name": "model_442/tf.math.add_162/Add/y", "shape": [2048], "dtype": "float32"}, {"name": "model_442/tf.nn.convolution_119/convolution/filter", "shape": [1, 1, 2048, 256], "dtype": "float32"}, {"name": "model_442/tf.math.add_163/Add/y", "shape": [256], "dtype": "float32"}, {"name": "model_442/tf.compat.v1.transpose_110/transpose/perm", "shape": [4], "dtype": "int32"}, {"name": "model_442/tf.reshape_26/Reshape/shape", "shape": [3], "dtype": "int32"}, {"name": "model_442/tf.compat.v1.transpose_114/transpose/perm", "shape": [3], "dtype": "int32"}, {"name": "model_442/tf.reshape_29/Reshape/shape", "shape": [2], "dtype": "int32"}, {"name": "model_442/tf.linalg.matmul/MatMul/b", "shape": [256, 256], "dtype": "float32"}, {"name": "model_442/tf.__operators__.add/AddV2/y", "shape": [256], "dtype": "float32"}, {"name": "model_442/tf.reshape_33/Reshape/shape", "shape": [3], "dtype": "int32"}, {"name": "model_442/tf.compat.v1.transpose_126/transpose/perm", "shape": [3], "dtype": "int32"}, {"name": "model_442/tf.compat.v1.transpose_133/transpose/perm", "shape": [3], "dtype": "int32"}, {"name": "model_442/tf.reshape_38/Reshape/shape", "shape": [2], "dtype": "int32"}, {"name": "model_442/tf.linalg.matmul_7/MatMul/b", "shape": [256, 256], "dtype": "float32"}, {"name": "model_442/tf.__operators__.add_3/AddV2/y", "shape": [256], "dtype": "float32"}, {"name": "model_442/tf.reshape_39/Reshape/shape", "shape": [3], "dtype": "int32"}, {"name": "model_442/tf.compat.v1.transpose_140/transpose/perm", "shape": [3], "dtype": "int32"}, {"name": "model_442/layer_normalization/moments/mean/reduction_indices", "shape": [1], "dtype": "int32"}, {"name": "model_442/layer_normalization/moments/variance/reduction_indices", "shape": [1], "dtype": "int32"}, {"name": "model_442/layer_normalization/batchnorm/add/y", "shape": [], "dtype": "float32"}, {"name": "model_442/layer_normalization/batchnorm/mul/ReadVariableOp", "shape": [256], "dtype": "float32"}, {"name": "model_442/tf.reshape_42/Reshape/shape", "shape": [2], "dtype": "int32"}, {"name": "model_442/tf.linalg.matmul_8/MatMul/b", "shape": [256, 1024], "dtype": "float32"}, {"name": "model_442/tf.__operators__.add_4/AddV2/y", "shape": [1024], "dtype": "float32"}, {"name": "model_442/tf.reshape_43/Reshape/shape", "shape": [3], "dtype": "int32"}, {"name": "ConstantFolding/model_442/tf.math.divide_1/truediv_recip", "shape": [], "dtype": "float32"}, {"name": "model_442/tf.math.add_167/Add/y", "shape": [], "dtype": "float32"}, {"name": "model_442/tf.reshape_46/Reshape/shape", "shape": [2], "dtype": "int32"}, {"name": "model_442/tf.linalg.matmul_9/MatMul/b", "shape": [1024, 256], "dtype": "float32"}, {"name": "model_442/tf.__operators__.add_5/AddV2/y", "shape": [256], "dtype": "float32"}, {"name": "model_442/tf.reshape_47/Reshape/shape", "shape": [3], "dtype": "int32"}, {"name": "model_442/layer_normalization_1/moments/mean/reduction_indices", "shape": [1], "dtype": "int32"}, {"name": "model_442/layer_normalization_1/moments/variance/reduction_indices", "shape": [1], "dtype": "int32"}, {"name": "model_442/layer_normalization_1/batchnorm/add/y", "shape": [], "dtype": "float32"}, {"name": "model_442/layer_normalization_1/batchnorm/mul/ReadVariableOp", "shape": [256], "dtype": "float32"}, {"name": "model_442/tf.compat.v1.transpose_153/transpose/perm", "shape": [3], "dtype": "int32"}, {"name": "model_442/tf.reshape_50/Reshape/shape", "shape": [4], "dtype": "int32"}, {"name": "model_442/tf.compat.v1.transpose_158/transpose/perm", "shape": [4], "dtype": "int32"}, {"name": "model_442/tf.nn.convolution_120/convolution/filter", "shape": [1, 1, 256, 256], "dtype": "float32"}, {"name": "model_442/tf.math.add_169/Add/y", "shape": [256], "dtype": "float32"}, {"name": "model_442/tf.concat_30/concat/axis", "shape": [], "dtype": "int32"}, {"name": "model_442/tf.nn.convolution_142/convolution/filter", "shape": [1, 1, 512, 256], "dtype": "float32"}, {"name": "model_442/tf.math.add_197/Add/y", "shape": [256], "dtype": "float32"}, {"name": "model_442/tf.nn.convolution_146/convolution/filter", "shape": [1, 1, 256, 256], "dtype": "float32"}, {"name": "model_442/tf.math.add_203/Add/y", "shape": [256], "dtype": "float32"}, {"name": "model_442/tf.compat.v1.transpose_201/transpose/perm", "shape": [4], "dtype": "int32"}, {"name": "model_442/tf.reshape_59/Reshape/shape", "shape": [3], "dtype": "int32"}, {"name": "model_442/tf.compat.v1.transpose_204/transpose/perm", "shape": [3], "dtype": "int32"}, {"name": "model_442/tf.concat_31/concat/axis", "shape": [], "dtype": "int32"}, {"name": "model_442/tf.reshape_62/Reshape/shape", "shape": [2], "dtype": "int32"}, {"name": "model_442/tf.linalg.matmul_16/MatMul/b", "shape": [256, 256], "dtype": "float32"}, {"name": "model_442/tf.__operators__.add_12/AddV2/y", "shape": [256], "dtype": "float32"}, {"name": "model_442/tf.reshape_69/Reshape/shape", "shape": [3], "dtype": "int32"}, {"name": "model_442/layer_normalization_2/moments/mean/reduction_indices", "shape": [1], "dtype": "int32"}, {"name": "model_442/layer_normalization_2/moments/variance/reduction_indices", "shape": [1], "dtype": "int32"}, {"name": "model_442/layer_normalization_2/batchnorm/add/y", "shape": [], "dtype": "float32"}, {"name": "model_442/layer_normalization_2/batchnorm/mul/ReadVariableOp", "shape": [256], "dtype": "float32"}, {"name": "model_442/tf.reshape_127/Reshape/shape", "shape": [2], "dtype": "int32"}, {"name": "model_442/tf.linalg.matmul_17/MatMul/b", "shape": [256, 1], "dtype": "float32"}, {"name": "model_442/tf.__operators__.add_13/AddV2/y", "shape": [1], "dtype": "float32"}, {"name": "model_442/tf.reshape_182/Reshape/shape", "shape": [3], "dtype": "int32"}, {"name": "model_442/tf.math.reduce_max_1/Max/reduction_indices", "shape": [1], "dtype": "int32"}, {"name": "model_442/tf.math.top_k/TopKV2/k", "shape": [], "dtype": "int32"}]}]}